model.tflite (tflite, 180820 bytes, 10 tensors)

dense_2/bias f4 [10]
000000 04 8e a0 bd b3 a2 af 3c 11 6b 49 be 3e da 6c 3d
       -0.07839587 0.021439886 -0.19669749 0.05782532
000010 4e 35 87 3d 55 5b 05 be a0 37 fa bb 03 d9 9e bd
       0.06601964 -0.13023122 -0.0076360255 -0.077562355
000020 2b 90 a8 3e 5c 58 17 3d
       0.3292249 0.0369495

dense_1/bias f4 [84]
000000 c0 ae ac bd ea 36 17 be 5e b3 42 bd 1c cd ca 3d
       -0.084317684 -0.14767042 -0.04753434 0.09902403
000010 b4 17 81 3d fe ba 21 3d 5a 61 5d 3e 15 7b bd 3d
       0.06303349 0.03948497 0.21619168 0.09251992
000020 e0 87 1a 3d 43 87 bc 3d 76 52 8e 3e fb 3b 5c 3c
       0.037727237 0.092054866 0.27797288 0.013442035
000030 dd 7a b0 bd cd b9 56 3e 77 f5 8b bc 62 7b 1c 3e
       -0.08617184 0.20969315 -0.01708482 0.15281442
000040 d3 63 97 3d 98 1d fc 3d ea fd b7 3e 71 24 be 3d
       0.07392087 0.12310332 0.3593591 0.092842944
000050 b9 d1 fb bd 37 eb ec 3d 66 16 15 3e de 43 b9 3c
       -0.12295861 0.11568301 0.14559326 0.02261537
000060 16 78 d1 bd 29 a6 9d bd 2b 09 71 3d fc 39 22 be
       -0.10227983 -0.07697708 0.058846634 -0.15842432
000070 64 43 c8 bc db d9 44 bd 5d 15 96 bc e2 d3 db bd
       -0.024446197 -0.048059326 -0.018320734 -0.10733773
000080 b5 7f c1 bd 34 98 44 3d 4b 00 e8 3d f2 87 8f be
       -0.09448186 0.047996715 0.11328181 -0.28033406
000090 15 29 15 3e cb 18 3c bd ed 47 37 3d 0a 3d 55 3e
       0.14566453 -0.045922082 0.04474633 0.20824066
0000a0 52 5c 6e be 3b 02 ae 3d 9d 08 7a 3e 19 18 0a 3e
       -0.23277405 0.08496519 0.24417348 0.13485755
0000b0 52 e6 79 be 28 cf 81 3e 4e b8 66 3e a0 ff c1 bd
       -0.24404266 0.2535336 0.22531244 -0.09472585
0000c0 75 5d e8 bd 92 5d 16 3e 34 dc d7 3d af 7e 83 bd
       -0.113459505 0.14684132 0.10540047 -0.06420647
0000d0 fe 73 dc 3d 02 76 c6 3d bf 9e a9 bc 2a 52 39 3e
       0.10764311 0.09690477 -0.020705579 0.1809775
0000e0 72 1e a3 3e 58 9e ea 3d 19 f9 18 3e a6 6d 27 bd
       0.31859165 0.11455983 0.14938773 -0.040876053
0000f0 4e a5 ef 3d cd b4 ff 3d 28 26 f2 bd 60 e8 2a 3e
       0.11701451 0.12485657 -0.11823684 0.16690207
000100 43 94 88 3e ea 17 43 3e 91 3c 12 3e 78 91 42 be
       0.26675615 0.19052091 0.14280917 -0.19000804
000110 7e d1 a4 3d 21 ba bc 3d 0d 42 00 be 57 fb fc 3d
       0.0804777 0.09215189 -0.12525196 0.12352627
000120 8f 09 26 bd b8 48 c4 3d e1 64 1b 3e f6 ba 30 3e
       -0.04053646 0.095841825 0.15175201 0.1725882
000130 e7 1b 9c bd dc 37 a3 bc dd 2e 94 be fc df 95 bc
       -0.076225094 -0.019924097 -0.28942004 -0.01829528
000140 fd 3d d4 3c d3 04 29 be c9 5d 15 3e 7a 5d a8 be
       0.025908465 -0.16505747 0.14586557 -0.32883817

dense/bias f4 [120]
000000 f9 65 61 3e a5 f7 95 bb b7 af 50 bd 31 e2 16 bd
       0.22011556 -0.0045766407 -0.050948825 -0.036836807
000010 21 5c 2c 3d 24 b6 b2 bc d8 21 73 bd 5b 03 96 bd
       0.04208005 -0.021815367 -0.059358448 -0.07324859
000020 a8 b7 d2 3c 6d b1 cc 3d 30 a9 be 3c f9 97 2a bd
       0.02572234 0.09994779 0.023274034 -0.04164884
000030 06 0a 55 3c 56 b4 60 bb 89 0d 8b bd 5a 4b 58 bb
       0.013002878 -0.0034287176 -0.06789691 -0.0033003897
000040 50 c5 fe 3c e9 15 5d 3e 10 db 35 be a9 8b 30 3d
       0.031099945 0.2159039 -0.17759347 0.04310194
000050 e3 ee f7 3d a8 fd 48 bd b1 52 0c bd 73 a1 30 bd
       0.12106111 -0.04907003 -0.03425855 -0.04312272
000060 48 2e 17 bd 66 26 04 bd 71 52 a0 3d bf 1c 00 be
       -0.03690937 -0.032263182 0.078282245 -0.12510966
000070 d5 18 fc bd 64 a9 5c 3e 65 9e 7b 3d f6 68 0a bc
       -0.12309424 0.21548992 0.061430354 -0.008447876
000080 a5 f3 09 bd 1e df e6 3d 2d f7 dc 3d 84 3e ef bc
       -0.033679623 0.11273025 0.107893325 -0.029204614
000090 bd 1d 4d 3e ff 59 7f bd 2b b2 40 bd 9d 39 d0 bb
       0.20030876 -0.062341686 -0.047044914 -0.0063545243
0000a0 a3 c3 92 bd fb 45 ea bd fb 47 92 3d 05 9b f2 3c
       -0.07166221 -0.11439129 0.071426354 0.029614935
0000b0 a0 2a f9 bd a6 de af 3d e4 7b 2c 3e 78 5e 30 bd
       -0.12166333 0.08587389 0.16844136 -0.043058842
0000c0 5c c7 23 3e ba d7 65 bd 29 ba 3b 3d 2e 26 4e 3e
       0.15994018 -0.056113936 0.045831833 0.20131752
0000d0 11 0a dd bc ac bb 02 bc f8 3d e7 bc d6 9e 0c be
       -0.02698234 -0.007979315 -0.028227791 -0.13732466
0000e0 15 06 38 bd 43 bf 02 bd f6 ab 8e bc 84 0e 91 3d
       -0.044927675 -0.031920683 -0.017415982 0.07082847
0000f0 68 5c b4 3c e1 3f e2 bc a7 95 21 bd 19 f6 be 3d
       0.022016719 -0.02761835 -0.03944936 0.09324283
000100 ab c4 d3 3c 2a 89 12 3e be e6 51 bd 4d c2 1c be
       0.025850615 0.14310136 -0.051245444 -0.15308495
000110 50 f8 79 bd 3f a4 f4 bd 62 15 75 3c 81 42 9a bc
       -0.061027825 -0.1194539 0.014958711 -0.01883054
000120 65 04 4b bd e6 88 c0 bd 9e 97 f5 3d c4 13 3c bd
       -0.049564738 -0.09401111 0.11991809 -0.045917287
000130 b8 75 55 3e 77 79 11 3e e2 1f 82 bd ed f9 67 ba
       0.20845687 0.14206491 -0.063537374 -0.00088491925
000140 50 49 a9 bc c6 fc 46 3d 93 9f 7e bd bf ac cc bd
       -0.020664841 0.048580907 -0.0621639 -0.09993886
000150 a1 b5 60 bd 48 df c6 bd cb 3b 33 bd b6 bd 5a 3e
       -0.054860715 -0.09710556 -0.043758195 0.21361431
000160 86 3a 74 bd 97 f0 9c 3d ef 8f ad bd 61 f6 4e be
       -0.059626125 0.07663076 -0.08474719 -0.20211174
000170 c9 17 31 be 8c 46 98 bd b4 00 38 be 21 b4 bc bc
       -0.1729423 -0.07435331 -0.17969018 -0.02303511
000180 2c ee a2 bd 29 49 07 bd 70 ce 38 3d 00 75 09 be
       -0.07955584 -0.033028755 0.04511875 -0.13423538
000190 84 4c fa bd d1 b9 e1 bc 63 73 17 3e 21 41 de b9
       -0.122216254 -0.027554424 0.1479011 -0.00042391664
0001a0 02 0c d5 bc 88 c3 17 3e 26 67 e7 bd f6 08 90 bc
       -0.026006702 0.14820683 -0.11298971 -0.017582398
0001b0 f1 bb 95 bd 43 6e a5 bd d6 1d b5 bd fc a9 22 3e
       -0.073112376 -0.080776714 -0.088435814 0.15885156
0001c0 c9 04 01 3e 75 2c 3e 3e ec a7 3b bd 92 a0 16 bd
       0.12599482 0.18571647 -0.04581444 -0.036774226
0001d0 09 fb 97 bb 56 28 94 bc 1d 77 af 3d b2 c6 dd bd
       -0.00463808 -0.01808564 0.08567641 -0.10828914

conv2d_1/bias f4 [16]
000000 57 a8 33 bd cb 3f 6e 3d 18 a3 95 bd 87 03 3b 3c
       -0.043861713 0.058166306 -0.07306498 0.011414415
000010 c8 5c c1 bd cc a6 e9 bc f0 ff 7f 3d 73 e5 94 bc
       -0.09441525 -0.028521918 0.06249994 -0.018175816
000020 66 0a a8 bd 30 3c 39 bc 65 d8 b6 3d 82 2f c5 bc
       -0.08205108 -0.011305854 0.08927993 -0.024070505
000030 62 1e 5f 3d ac 3c 0a bd 84 7e d5 bd ee cd 9e 3d
       0.054472335 -0.033749267 -0.104245216 0.07754122

conv2d/bias f4 [6]
000000 0d 56 19 3e 8b 84 22 bf ae a3 33 bf 56 7e 42 3e
       0.14974232 -0.63483495 -0.7017163 0.18993506
000010 74 8d 88 be 09 7e a2 bd
       -0.2667042 -0.079341955

dense/MatMul f4 [120, 256]
000000 29 c2 5b 3e 66 c5 75 3d df 44 6a 3d 72 fc 44 be
       0.21460785 0.060002707 0.057194587 -0.19236925
000010 a9 22 0f 3d f9 a6 6f 3e e3 d8 6b be 0a 20 64 3d
       0.034945164 0.23403539 -0.23031954 0.055694617
000020 76 a7 8b 3e f1 79 2f be 5e b8 14 3e 06 f7 e5 bd
       0.272762 -0.1713636 0.14523456 -0.112287566
000030 6a 11 f2 3d 60 a5 38 be 9a 19 ff 3e b9 ce b2 3e
       0.11819728 -0.18031836 0.4982422 0.34923342
000040 a9 cf 6c 3b 32 8b 2d 3e f0 7c c8 3d 6c 9a 5e be
       0.0036134517 0.1694763 0.09789455 -0.21738595
000050 f6 ad b7 bd b8 52 12 3e 75 f5 89 3d 51 ca dd 3d
       -0.08968727 0.14289367 0.0673627 0.108296044
000060 b6 c1 ff bd 7c 76 49 3e f4 32 38 3e 97 1b 0c 3e
       -0.12488119 0.19674104 0.17988187 0.136824
000070 57 67 80 3d ab 4e 4d be cd 92 84 3e 8d 47 d4 3d
       0.062697105 -0.2004954 0.2589325 0.1036521
000080 a5 10 aa 3e ee 5f 15 be 39 be 1d bd a9 5a 6c 3e
       0.33215824 -0.14587376 -0.03851149 0.23081459
000090 d3 8a 21 3e b0 91 84 3e 01 92 71 3e e9 23 d5 3b
       0.15775613 0.258924 0.23590852 0.006504525
0000a0 18 79 20 be cd cc e1 3d ee 31 76 3d 78 cb 86 3d
       -0.15671194 0.11025391 0.06010621 0.06581777
0000b0 77 d0 a6 3d 39 6c ad 3c 31 89 c2 3c 48 54 e9 bd
       0.0814523 0.021169769 0.023747059 -0.113930285
0000c0 5b 65 b3 3e 39 80 76 be 1d ac c4 3c d2 59 ef 3c
       0.35038266 -0.2407235 0.024007851 0.029217634
0000d0 85 80 ba 3b 11 41 58 3d 2a c3 08 3e 77 7e 9d 3d
       0.0056915903 0.052796427 0.13355699 0.07690137
0000e0 03 c8 0a 3e 69 a9 0e 3d 15 57 ac 3e 1d 67 7d be
       0.13552861 0.03482953 0.33660188 -0.24746366
0000f0 0f 4c 79 3e c1 3c bc ba 6d 45 10 bf 18 f0 13 3d
       0.2434542 -0.0014361368 -0.56355935 0.036117643
000100 3c 85 7e bd 31 45 47 3e a5 2e 10 3f d1 a1 81 bd
       -0.06213878 0.19459988 0.56321174 -0.06329692
000110 99 fe 24 3e 0e 37 38 3e ca f1 ab 3d 3f 28 eb 3d
       0.16112746 0.17989752 0.08395727 0.11482286
000120 69 1d 01 3e d1 a5 26 be a1 c9 7a bd 67 77 ce be
       0.12608875 -0.16274191 -0.061227445 -0.40325472
000130 1a b8 35 be 8c bf 1b 3e ea 74 89 3e 23 40 74 be
       -0.1774601 0.15209788 0.2684701 -0.23852591
000140 f8 92 2d be bd 4a 80 3e c8 bb f0 3e f7 3d 2c 3e
       -0.16950595 0.2505702 0.47018266 0.16820513
000150 61 6f 3e 3e a5 9f 24 3e 29 ef 84 3d 64 a4 b5 be
       0.18597175 0.16076525 0.06490929 -0.35476983
000160 8a b2 d3 be 73 60 9f bd cd d8 74 3e 87 61 9f be
       -0.41347152 -0.07782068 0.23910828 -0.31129095
000170 f9 c8 0a be 56 0f bb be 4c 54 51 3d 99 69 c3 be
       -0.13553227 -0.36535138 0.051105782 -0.38166502
000180 ba 6d bc be ce 6a bc 3d 52 88 fe 3d bb 46 8d bd
       -0.36802465 0.09200059 0.12428345 -0.068982564
000190 b7 8a 42 3e 0b 20 c8 bd 3c b8 86 3d 79 83 ca bc
       0.18998228 -0.09771737 0.06578109 -0.024720894
0001a0 13 fe be be b0 2f c5 3d 8b 42 4a be c6 24 6a 3b
       -0.37303218 0.09628236 -0.19751947 0.0035727485
0001b0 5c 95 bd 3e 1c 59 99 3c e3 d7 11 be 1d 88 18 3d
       0.37028015 0.018719248 -0.1424251 0.037239183
0001c0 f2 ac 4e 3e 51 19 55 bc 52 b2 ef bc 77 87 31 3e
       0.20183161 -0.013006524 -0.029259834 0.17336832
0001d0 07 8c 8d be 3c b2 e5 bc 25 43 07 3f 3e 83 86 3c
       -0.27645895 -0.02803909 0.5283683 0.016420003
0001e0 31 25 c6 be 6f 67 6d 3e 80 17 2b be a8 94 3d be
       -0.3870025 0.23183988 -0.16708183 -0.18513739
0001f0 b7 04 88 bd 67 4d 3c be 5a 8f 5f be e5 0e bf bc
       -0.06641524 -0.18388902 -0.21832028 -0.023322532
000200 fc 62 71 3e 96 51 9a bd 4e 20 29 3f 4a 70 12 3c
       0.23572916 -0.075350925 0.6606492 0.008937905
000210 21 b8 68 be 0e c8 02 be b6 c9 5d bd 6d 54 87 3e
       -0.2272649 -0.12771627 -0.054147445 0.264316
000220 5c 06 26 be ec 9f 8b bc c4 f4 de bd 4c 64 85 be
       -0.16213363 -0.01704403 -0.10886529 -0.26053083
000230 b2 16 80 3e b0 af c3 be 9e c7 91 3d b0 c0 e4 be
       0.25017315 -0.38219976 0.07118152 -0.4467826
000240 0c b2 6c be 8c 9e 6d bd a2 87 9e 3e c1 77 8e bd
       -0.23114794 -0.05801253 0.30962855 -0.06956435
000250 9b cf a2 bd 88 d0 30 bf 13 58 0c 3e 6e 47 85 be
       -0.07949754 -0.69068193 0.13705473 -0.2603106
000260 1f a3 a0 be 95 67 2b bd 4e 85 62 be 0d 95 d3 be
       -0.31374452 -0.04184683 -0.22121164 -0.41324654
000270 f2 22 e1 3e e9 46 3b 3e d4 1c 8e bd 08 77 8e be
       0.43971974 0.18288769 -0.06939092 -0.2782519
000280 b6 68 31 be 65 47 af 3e 76 14 68 be 58 67 11 be
       -0.173251 0.34234157 -0.22664055 -0.14199579
000290 bf fc 96 3c 53 78 10 3e b4 ca 14 be 7d 47 88 3e
       0.018431066 0.141084 -0.1453045 0.2661704
0002a0 f4 aa b1 3d f4 b2 a8 3e f4 86 98 3e 01 69 fc 3e
       0.08675185 0.3294903 0.2979046 0.49298862
0002b0 c4 95 57 3e 73 6b 4a bd 58 e7 07 be a0 b4 90 3e
       0.21053225 -0.049418878 -0.13271844 0.28262806
0002c0 b1 99 bc 3e cd 4a 0f 3f e9 2d e3 bd de 4c a9 bd
       0.36836007 0.5597351 -0.11092741 -0.082666144
0002d0 00 55 8f 3b f7 79 bd 3e ae 3c 66 be 01 53 34 3e
       0.0043741465 0.37007114 -0.22484085 0.17609788
0002e0 ac 05 64 be 5e 40 2e 3e 08 96 ad 3e 52 ec 96 3d
       -0.22267789 0.17016742 0.33903527 0.07369293
0002f0 f5 16 7a be fd eb f2 3d 96 09 2f be c9 cd a8 3e
       -0.2442282 0.118614174 -0.170935 0.32969502
000300 3e b8 6d 3e bc 67 f2 be 61 dc 7c bc a5 df 93 3e
       0.23214814 -0.47344768 -0.015433402 0.28881565
000310 98 1a 0a 3e e0 8e b5 be 70 d5 0e 3d fe 72 e4 3d
       0.13486707 -0.35460567 0.03487152 0.111547455
000320 6e 55 1b bf 2f a4 cb be 53 cc a3 3d 69 6f fb be
       -0.6067723 -0.397737 0.07997956 -0.49108437
000330 e6 d8 cf bd 70 6f 5c bd 02 8a ee bd 05 11 83 be
       -0.10148792 -0.053817213 -0.11647417 -0.25598922
000340 46 b2 57 be 5b fc f9 bd ac 34 e2 bd d1 b2 56 be
       -0.210641 -0.12206336 -0.110452026 -0.2096665
000350 61 f8 43 be 1c 59 f1 be 95 12 b9 be 40 8d 04 bf
       -0.19137718 -0.47138298 -0.3614699 -0.5177803
000360 c6 4f 38 be ee af 9b bc d7 27 ad bd a7 98 fc be
       -0.17999181 -0.019004788 -0.084548645 -0.49335214
000370 59 a0 52 be 0f ce 0e be fa 95 18 3d a0 66 ef bd
       -0.2056898 -0.13945793 0.037252404 -0.11689496
000380 92 40 dd 3d 06 89 09 be f9 65 b6 3c 2f 47 6f be
       0.108033314 -0.13431177 0.022265421 -0.23366998
000390 3a 42 a1 3e c2 f2 81 3d 90 95 70 be b1 23 ba be
       0.3149584 0.063451305 -0.23494554 -0.36355355
0003a0 75 64 60 3e 12 44 9a 3d c1 af 8a be db 99 cc bc
       0.21913321 0.07532515 -0.27087215 -0.024975708
0003b0 3f cd 0a be 41 3a 94 bd 1b aa 5e 3e 70 13 b0 bd
       -0.13554858 -0.072376736 0.21744578 -0.085974574
0003c0 8f 61 cd 3d a9 01 8f be 37 72 c7 3d 94 5e 9a 3e
       0.100283735 -0.27930954 0.09738582 0.30150282
0003d0 fe 75 65 bd e7 42 00 be 3a 7a 31 3e 6b f1 4e 3d
       -0.05602073 -0.12525521 0.17331782 0.050523203
0003e0 4a be 42 3d 4c c0 39 bd 8e de 5a 3e a1 7f 49 3e
       0.047544755 -0.045349404 0.2137396 0.19677593
0003f0 7c c7 a4 be 74 b5 95 3d 3c be e2 be 81 d1 5a 3e
       -0.32183444 0.0731 -0.44285762 0.21368982

dense_1/MatMul f4 [84, 120]
000000 bf 90 87 3e b2 e8 eb bd c4 5b a9 3d b9 be f4 bc
       0.2647762 -0.115189925 0.08269456 -0.0298761
000010 f9 80 81 bd b9 00 8c 3e db 20 6f 3e 31 99 3d 3e
       -0.06323428 0.273443 0.23352377 0.18515469
000020 21 5c 3b 3e 8d a9 99 bd a7 b9 59 be 9d d2 0f 3e
       0.18296863 -0.07503042 -0.21262227 0.14045186
000030 04 e2 f1 bd 7d 60 f8 bd b1 36 13 bf 6f b2 94 3d
       -0.11810687 -0.12127779 -0.5750533 0.07260596
000040 50 22 61 be 9e ab cc bd 24 53 5b be e8 00 55 3e
       -0.21985745 -0.09993671 -0.21418434 0.20801127
000050 5c 14 9a 3d 7f 7e cb 3d 08 74 02 3e 76 e8 df 3d
       0.075234145 0.099362366 0.12739575 0.1093301
000060 d1 97 9f bd 51 6c cb bd 4b 24 aa 3e 5a 58 a7 3e
       -0.077926286 -0.09932769 0.33230814 0.32684594
000070 05 47 94 3c d4 bf 51 3d 2c 1d 36 3e ad 40 02 bf
       0.018100271 0.051208332 0.17784566 -0.5087994
000080 84 d9 20 3b 55 dd 03 3e 92 5a 91 3c 3e c7 58 3d
       0.0024543712 0.128774 0.017743383 0.052924387
000090 87 a5 43 be 03 e3 ac be 58 fc 91 3d a0 a8 e0 3d
       -0.19106112 -0.33766946 0.07128209 0.10969663
0000a0 04 87 61 be 04 d3 91 3e 9a 5d 24 bf 46 05 c7 be
       -0.2202416 0.28481305 -0.64205325 -0.3887121
0000b0 7c 54 24 be 53 7b 18 bf ce ad 1b bf fe 15 24 3e
       -0.16047853 -0.5956318 -0.6081208 0.16024014
0000c0 23 ca c4 3d 8b 25 80 bd 4d ea c1 3e f7 d7 83 be
       0.09608867 -0.06257161 0.3787407 -0.25750706
0000d0 b2 0a 4d be 86 ee 86 3e 04 c1 75 3d 52 f8 ca 3e
       -0.20023611 0.26353854 0.059998527 0.39642578
0000e0 95 3b f1 bc 64 15 d1 bd 04 ad 91 be 99 8f 36 3d
       -0.029447356 -0.10209158 -0.28452313 0.04457054
0000f0 91 29 95 3e 92 9f 03 bc ca a0 fa bd c8 b5 84 be
       0.29133275 -0.00803365 -0.12237699 -0.25919938
000100 1f 62 c2 be b2 3a 9c be 13 2b 01 3f d2 2e 22 3e
       -0.37965485 -0.3051353 0.5045635 0.15838173
000110 70 0e 5c 3e 08 ad 8f 3c 97 18 dc 3e 98 87 83 bc
       0.21489882 0.017538562 0.4298751 -0.016055867
000120 37 e2 99 3e d0 69 94 be 5f 51 c1 be b1 b7 5f be
       0.300554 -0.2898698 -0.37757394 -0.21847416
000130 3b b4 a1 3e 43 28 8d be 36 26 c3 3c 52 fe 73 be
       0.31582817 -0.2756978 0.023821931 -0.23827484
000140 5f 7e e8 bd 17 f3 41 3e f2 7e 06 be 7d a7 c4 bd
       -0.113522284 0.18940388 -0.13134363 -0.09602258
000150 d0 c1 9e bd 19 8c 80 3e 16 2a 30 3e 4c 36 15 3e
       -0.077518106 0.25106886 0.17203555 0.14571494
000160 ea 7d 18 3f 55 ab 04 3e 4f 8e 98 bd 83 9a 5b be
       0.5956713 0.12955983 -0.07449018 -0.2144566
000170 32 ea ae 3a 40 ff 05 3e 23 03 4c 3e a9 1a 7b 3d
       0.0013344942 0.13085651 0.19923072 0.061304722
000180 87 42 8f 3e a7 a0 8b bd 81 5f 37 bf 94 b9 01 3e
       0.27980444 -0.068177514 -0.716301 0.12668449
000190 a3 c5 91 bd 7e f7 b6 bb 91 0f 2e bf a7 d8 51 3c
       -0.07117774 -0.0055837026 -0.679925 0.012808002
0001a0 5b c1 b4 bd 7b 08 9d be 9a 47 6d be 72 99 27 bf
       -0.08825942 -0.30670533 -0.23171845 -0.65468514
0001b0 dd 6b 20 3d c8 92 27 bd 9f b6 82 3e 31 fc 0b 3c
       0.039165366 -0.040911466 0.25529954 0.008544014
0001c0 d3 3b f5 be 27 51 ff 3d 5d c3 c9 bd 48 f7 55 3e
       -0.47897205 0.124666505 -0.09851716 0.20895112
0001d0 45 06 64 3f 2a 84 14 3e 28 10 2f 3c d3 62 b9 bc
       0.89072067 0.14503542 0.010685004 -0.02263013
0001e0 af 94 91 3e d2 f5 ab bd dc 44 2d be 2b 0d 5d bd
       0.2843375 -0.08396496 -0.16920799 -0.053967636
0001f0 34 f8 13 3a 72 eb 8d be e1 bd 23 3e 3c 6f 73 3e
       0.000564459 -0.27718693 0.15990402 0.23772901
000200 df 32 d9 bd 9c bb ba 3e c5 47 4b be 00 1d bf bd
       -0.10605406 0.3647126 -0.19851597 -0.09331703
000210 0e dd a1 3d d0 cc ba 3e 74 ea 51 3e 00 61 e3 be
       0.07903491 0.36484385 0.20499593 -0.44409943
000220 dd ce a3 be c6 62 fa 3c 1e 4e 43 3e 09 e5 3c be
       -0.31993762 0.030564677 0.19072768 -0.18446745
000230 34 ca 94 3d 64 f0 d4 bd 15 85 eb 3c 25 f8 cd bc
       0.0726513 -0.103974134 0.028749982 -0.025142739
000240 39 a0 52 3d 7a a4 ef 3e d0 74 12 3e 97 92 8a 3e
       0.05142233 0.46805173 0.14302373 0.27064964
000250 02 41 8b 3d 8d 41 95 be 06 8d 8e be 14 1c c0 bd
       0.06799509 -0.29151574 -0.27841967 -0.093803555
000260 38 e0 47 3e 31 19 db 3e fc 52 9a 3e f4 25 92 3d
       0.19519126 0.42792657 0.30141437 0.07136145
000270 94 0e c7 3d eb 99 b7 be ed 60 93 bd 33 49 d1 3d
       0.097195774 -0.35859618 -0.071962215 0.1021904
000280 38 f7 32 be 7a 67 94 3d f9 87 f1 bd f8 b0 84 bc
       -0.17477119 0.07246299 -0.11793513 -0.016197667
000290 f0 de 13 be 32 55 45 bd a1 bf 50 3e 5f a0 28 be
       -0.14440513 -0.04817695 0.203856 -0.16467427
0002a0 09 5d f4 3b 91 c8 4b bd 24 27 3a be 5d 2a 10 be
       0.0074573797 -0.049751822 -0.18178993 -0.1407866
0002b0 c6 4d 99 be 2c 24 c2 bd 98 d1 04 3e b0 33 60 3d
       -0.2994215 -0.094795555 0.12970579 0.054736793
0002c0 01 af 1c 3d d9 d8 07 3e 0a 42 03 3e dd d2 c0 3e
       0.038252834 0.13266315 0.1281816 0.37660876
0002d0 97 f2 1d bf 09 ca 0c be 83 3a 02 bd 13 91 a2 be
       -0.6169829 -0.13748945 -0.031794082 -0.31751308
0002e0 20 8f bb 3d 04 f9 1e bf 52 3a 93 be 73 6e d4 be
       0.09158158 -0.6209872 -0.28755432 -0.41490516
0002f0 74 c7 82 bd c5 74 00 bc c6 84 02 3e 22 b6 f9 bc
       -0.06385699 -0.00784034 0.12745962 -0.030482356
000300 00 ea ca be d3 0e 54 3e 8e eb df 3d a7 36 95 bd
       -0.39631653 0.2070878 0.109336 -0.07285815
000310 5b c9 ea bd 7b 65 ab 3d 5d c8 e2 3d e1 03 56 be
       -0.11464187 0.08368965 0.110733725 -0.20899917
000320 f5 65 d8 3e 7b df 8b 3d e2 04 5b 3e c0 f1 53 3e
       0.42265287 0.06829735 0.21388581 0.20697689
000330 4a 8b 0f 3e 9e 67 15 3d c0 d9 6c bd ac 5d 0b bf
       0.14017978 0.03647577 -0.05782485 -0.54439807
000340 61 35 0a 3f 9d 50 ba bd e5 0d dc be 76 06 80 3e
       0.539877 -0.09097407 -0.4297935 0.2500493
000350 08 dd 2b be 5c ed 36 be 3e 19 9c 3d 59 0c 05 3e
       -0.16783535 -0.17863983 0.07622002 0.12992992
000360 b3 ba 8f 3d 55 7d 02 be 77 63 d0 3d 9c 9d 23 3e
       0.07018032 -0.12743123 0.101752214 0.15978092
000370 0f 70 2a 3e 20 08 c8 bd 38 76 ad be 14 17 a4 3d
       0.1664431 -0.09767175 -0.33879256 0.08012214
000380 1f 78 07 bc 2a c9 4a be 2d 30 f9 bc c6 8f 18 bd
       -0.008268385 -0.198033 -0.03041848 -0.037246488
000390 de d8 dc bd 5e fe e4 3d e8 9f c8 be 93 43 30 3e
       -0.10783552 0.11181329 -0.391845 0.17213278
0003a0 bf 95 f0 bd fb fd 01 be 7a a6 02 3e 51 93 9c 3e
       -0.11747312 -0.12694542 0.12758818 0.30581143
0003b0 d4 f7 d6 3d c6 f5 f4 3d 74 86 c2 3d a7 17 a7 bd
       0.10496488 0.1196094 0.09498301 -0.08158808
0003c0 71 2e 18 be 6a f7 a3 3e a6 bf 68 bc 2f f3 cf 3d
       -0.14861466 0.320247 -0.014205849 0.101538055
0003d0 bc fd 98 be 96 fb ad bd 61 ca 8d 3e c5 88 5d 3e
       -0.29881084 -0.08495252 0.27693465 0.21634205
0003e0 2f bf 53 bd 3b d8 dc 3d 8e a6 08 be 4a 8b 5f bd
       -0.051696 0.1078343 -0.13344786 -0.054576196
0003f0 29 4e 8b 3e 3a 32 87 bc 9f cc 92 3e d5 ae 40 bb
       0.2720807 -0.016503442 0.28671739 -0.0029401083

dense_2/MatMul f4 [10, 84]
000000 d0 d4 1e 3f ea c5 8b be 24 eb 05 bf bd 92 26 3e
       0.62043476 -0.27299434 -0.5231192 0.16266914
000010 65 25 0e 3d 19 ce 22 bf d0 5d ec 3d 43 53 ae 3e
       0.03470363 -0.6359573 0.11541331 0.340479
000020 7d 7e d3 be 28 96 e6 be ac 61 20 3e c3 7e c8 3d
       -0.4130744 -0.45036435 0.15662259 0.09789803
000030 37 eb 6a be a9 da b6 be 4c 56 b4 3e 40 9c 19 3e
       -0.2294129 -0.357137 0.3522209 0.15001011
000040 a9 0b 24 3e d3 ca 7d 3e 19 13 2a 3e d1 ac f6 3e
       0.16020073 0.24784403 0.16608848 0.48178723
000050 ac e6 62 be 55 92 62 bd 96 d1 2c bf 6c 7f 5a bf
       -0.22158307 -0.055315334 -0.675073 -0.8535068
000060 48 df 88 3e 56 a3 6b bb e0 0e 82 be f4 2f 8a be
       0.2673285 -0.003595551 -0.25401974 -0.2698971
000070 71 7a da 3e b0 74 c5 bb 3d 2f 0e 3f e7 e6 08 bf
       0.4267154 -0.006025873 0.5554083 -0.5347733
000080 38 fc f7 3e 69 eb c5 bd 06 64 71 bf 16 bd 16 3c
       0.48434615 -0.096640415 -0.9429325 0.009200355
000090 c3 0a 3c 3e 21 33 e6 3c d6 e0 84 be d7 d5 82 3c
       0.1836348 0.028100552 -0.25952786 0.015971107
0000a0 22 23 37 bf 5e ac 8c 3d 4b a1 f9 3e dc ab 3e 3e
       -0.71537983 0.06868814 0.4875587 0.18620247
0000b0 00 e7 9d 3e 8a aa 59 be 37 ed 37 bf 8c b8 26 bf
       0.30840302 -0.21256462 -0.71846336 -0.65125346
0000c0 a4 7a 90 be c6 04 73 be 66 9b 17 bf 7a a4 47 bf
       -0.28218567 -0.2373229 -0.59221494 -0.77985346
0000d0 a8 80 3f bf 32 b1 c1 be 0a df 0c 3f a1 9d 38 3d
       -0.7480569 -0.37830502 0.5502783 0.0450722
0000e0 e0 0b 6c bf f7 69 9e bd bd 53 6d be d0 5a 55 3e
       -0.9220562 -0.07735055 -0.23176475 0.20835423
0000f0 40 b1 f7 3d 1c 23 9b 3d 2b 26 79 bd dc 70 25 bf
       0.12094355 0.07575056 -0.060827415 -0.64625335
000100 24 a2 02 3e 4c fe 9d be 76 e9 6d 3e aa 89 f1 be
       0.12757164 -0.30858076 0.2323359 -0.47175342
000110 e4 4b ff be 32 71 07 be f2 59 e8 3e 55 85 56 bf
       -0.49862587 -0.13226774 0.45381123 -0.837972
000120 d5 46 34 bf 19 0c b7 be a5 52 0c bd fe be ae 3e
       -0.7042058 -0.35751417 -0.034258503 0.3413009
000130 e5 da 4a 3e 24 20 e1 bd 9b e2 97 be e9 a1 93 3e
       0.19810064 -0.109924585 -0.29665074 0.28834465
000140 7e 3c 08 be 41 39 4c be 55 43 b9 3e c0 a3 8d 3e
       -0.13304326 -0.19943716 0.36184183 0.27663994
000150 52 25 5c bf a0 73 cc 3d 37 a0 2c 3d 1e 35 6a bd
       -0.85994446 0.09982991 0.04214498 -0.057179563
000160 12 28 3c 3d b4 7e 34 3e da 74 9d be 3c e0 0e 3e
       0.04593665 0.17626458 -0.30753213 0.13952726
000170 d7 5f 55 3e c2 9f a4 3d 23 f9 54 bf c5 6a 48 bf
       0.20837341 0.08038284 -0.8319265 -0.7828792
000180 42 10 90 3e 81 a9 d8 bc ab 0c d3 3c 19 4a 94 3d
       0.28137404 -0.026448013 0.025762876 0.072406955
000190 bd 99 2a bf ab 9b 7a 3e f6 05 e3 bc ec b7 b6 3c
       -0.66640836 0.24473445 -0.027712803 0.022304498
0001a0 48 76 72 bf 68 c7 46 3e 45 80 4e bf 61 7e e8 3e
       -0.9471173 0.19412005 -0.80664474 0.4540892
0001b0 30 da 38 bf 00 7b ac 3e d0 6e 28 bf ae df dd bc
       -0.7220793 0.33687592 -0.65794086 -0.027084198
0001c0 0e 93 9b 3e dd d0 03 3f a1 08 9d bf 94 9c 8f be
       0.3038563 0.51490575 -1.2268258 -0.28049147
0001d0 95 47 58 3d 70 94 5e 3e 1a 0a 33 3f a6 e9 0a bf
       0.05280264 0.21736312 0.6993729 -0.5426277
0001e0 fe eb 49 bf fb 69 cd 3e bb 2d 9c 3e 40 c4 86 3d
       -0.7887572 0.4011992 0.3050364 0.065804005
0001f0 9c 87 8f 3c 47 db 3a be 14 eb 88 3d a3 db d5 bd
       0.017520718 -0.1824771 0.066854626 -0.10442283
000200 bf ff 02 3f c5 d1 49 3e 99 fb 19 3c 46 21 a9 3e
       0.5117149 0.19708927 0.009398364 0.33033198
000210 b2 ce 96 be d5 6f a6 3d d2 43 a1 bf 05 be 0d bd
       -0.2945457 0.08126799 -1.2598822 -0.034605045
000220 04 fb 90 3e 8e 9b e1 3e 78 d1 a7 3e 08 42 e0 be
       0.2831651 0.4406399 0.32777 -0.43800378
000230 76 58 e0 bb 46 b4 86 bf 39 c3 18 bf 05 0f 19 bf
       -0.006846483 -1.0523765 -0.59672886 -0.59788543
000240 5c 00 12 bf 6d 47 3e bd b5 b6 7a 3e e5 ea 5a be
       -0.570318 -0.046454836 0.2448376 -0.21378668
000250 fd 4f 9f bd 09 9d 70 3e 15 66 62 bf d9 9b a2 ba
       -0.077789284 0.23497404 -0.88437015 -0.0012406065
000260 49 ac 44 3e c8 41 21 bf b1 44 ec 3e d0 a2 26 bf
       0.19206347 -0.62991 0.46146157 -0.6509218
000270 58 4a f1 be d1 a9 de be 04 a0 f2 be e1 1a 21 bf
       -0.47127032 -0.43488935 -0.47387707 -0.6293164
000280 99 b2 86 3e e9 59 3b 3e 7c 94 34 3e b5 82 2c be
       0.26308134 0.18296017 0.17634767 -0.16846736
000290 f5 c8 6c 3e ed b1 12 be 8c 1a 47 be a4 c1 6a be
       0.23123534 -0.14325686 -0.1944372 -0.2292543
0002a0 c9 e9 20 3f 80 e6 0c 3e 83 3d 1f be 87 60 76 3d
       0.6285673 0.13759804 -0.15550809 0.06015065
0002b0 9e dc 6e 3e 39 af 10 bf 2b 87 62 bf 48 7d 83 bd
       0.23326346 -0.5651737 -0.884875 -0.0642038
0002c0 e1 cd 54 3e 9c 59 06 bf 48 69 54 bf c9 68 24 bf
       0.20781662 -0.52480483 -0.82973146 -0.6422239
0002d0 58 a0 ce 3e ff 3e fc be 70 97 1a 3e 6e 8e b6 3e
       0.40356708 -0.49266812 0.15096831 0.3565554
0002e0 bc 03 3a 3b 9f 85 0d 3e e5 05 86 be b6 d6 a1 be
       0.0028383574 0.13820504 -0.26176372 -0.31609124
0002f0 50 cf a9 bc a0 95 2c be d3 3a a1 bd b0 47 e2 bd
       -0.020728737 -0.16853952 -0.07872548 -0.110488296
000300 4d 58 21 be 66 ea 1e be 7a e5 ac 3e 86 b8 94 3e
       -0.1575634 -0.15519103 0.33768827 0.2904703
000310 c0 3a 17 3f 52 c2 22 3e e8 57 a6 be 64 0a 03 3e
       0.5907402 0.1589444 -0.32488942 0.12796932
000320 ed 98 ec 3d 0d 28 98 3e a4 f8 6f be 4f 32 b6 3e
       0.11552606 0.29718056 -0.23434693 0.35585257
000330 13 1b 99 bd 5d 3c da be 01 5e 73 be a0 c6 08 bf
       -0.07475867 -0.4262418 -0.23766328 -0.5342808
000340 65 9b 0f be 43 14 50 ba 3a 61 87 be 57 b3 1a bf
       -0.14024122 -0.00079375895 -0.26441365 -0.604299
000350 73 1a 6f be 52 b7 15 3e c4 a2 58 be 71 11 39 3e
       -0.23349933 0.14620712 -0.2115584 0.1807306
000360 d6 bd 97 3d 01 08 4d 3e eb 8f af be 7e 8e a1 3e
       0.07409255 0.20022584 -0.34289488 0.31554025
000370 5b ae c5 be 1f 14 8a 3e da 7a c2 bb 0c 88 d3 be
       -0.38609585 0.26968476 -0.005935055 -0.41314733
000380 72 ad 24 bf d3 a0 54 3e 8d 78 01 bf 8c 4c 66 3d
       -0.64327157 0.20764475 -0.5057457 0.056225345
000390 8f 8f 56 3e 5d b4 82 be 75 46 66 bc 4d 33 97 bd
       0.20953201 -0.2552823 -0.014054884 -0.07382832
0003a0 fe 37 38 be 99 7f d3 be 82 ce 2d bf 65 a2 30 3e
       -0.1799011 -0.41308287 -0.6789323 0.17249449
0003b0 ce 6d 41 3e c8 c4 25 bf 4a c8 02 be 3f 64 31 3f
       0.18889543 -0.6475339 -0.12771717 0.6929359
0003c0 c3 6b bd 3e cd 54 31 3e f9 7e 91 3e d4 e3 51 be
       0.36996278 0.17317505 0.28417185 -0.20497066
0003d0 95 c7 a3 3e 1d 99 ac be 2d b3 79 3e d5 e8 c2 3e
       0.31988207 -0.33710566 0.24384756 0.38068262
0003e0 5e 67 a9 3c 05 8d 58 be 86 fc a3 bd 76 35 11 3f
       0.020679172 -0.21147545 -0.080071494 0.567222
0003f0 48 86 5e bf 68 c9 eb 3e b2 7d a7 3e 58 11 12 be
       -0.86923647 0.46052098 0.32713085 -0.14264429

conv2d/Conv2D f4 [6, 5, 5, 1]
000000 c2 5e e6 be 2a 12 7c bd 6a f5 df 3e cf 29 b2 3e
       -0.4499417 -0.06154076 0.43741924 0.34797522
000010 a5 de f7 ba d5 cd 3d bf 87 34 6b 3d 40 9f aa 3e
       -0.0018910958 -0.741422 0.05742314 0.33324623
000020 6f c2 94 3e ea 6d b7 bd a5 4c 47 bf 9f 57 5e 39
       0.2905459 -0.08956511 -0.77851325 0.00021204211
000030 3c 6f 9c 3e 86 6d 54 3e 62 a8 8a bd f1 8d 08 bf
       0.30553615 0.20744905 -0.06770398 -0.53341585
000040 f9 d4 00 be 94 0d 0e 3d 3e c7 5a 3e 5c 81 51 3e
       -0.12581243 0.034680918 0.21365067 0.20459503
000050 e4 d2 54 be 74 54 b1 be 53 4a 9a 3d 21 22 0f be
       -0.20783573 -0.34634745 0.075337075 -0.13977863
000060 0b b5 08 bd 38 07 12 3e 91 34 ad 3d ef 68 c2 bc
       -0.03337578 0.14260566 0.08457292 -0.023731677
000070 73 9e 85 be 5d 4e 2c be 3f 0c 06 be 3d 01 2c 3e
       -0.2609745 -0.16826768 -0.13090609 0.16797347
000080 ee e6 f6 bd 55 93 67 bd 9a 80 3b be e8 be a0 3d
       -0.12055765 -0.05653699 -0.18310776 0.078489125
000090 eb 62 7d bd 32 77 68 3e 88 34 b6 3d 82 fa 09 3e
       -0.061861914 0.2270172 0.08896738 0.13474467
0000a0 02 af 7f bd 1a 5b 2c 3e 05 f1 b0 3e da b1 a0 3e
       -0.06242276 0.16831627 0.34558883 0.3138569
0000b0 85 b7 97 3e b2 e0 0f be d8 ba 4a be 4d ae 42 be
       0.29632202 -0.14050558 -0.19797838 -0.19011803
0000c0 f4 59 7a 3d 65 4a 01 3e b9 48 cd be 35 7c a8 bd
       0.061120942 0.12626036 -0.40094545 -0.082268156
0000d0 2b 7d 55 be 61 62 5c bd 52 96 08 bd f0 95 9e 3c
       -0.20848529 -0.05380476 -0.03334648 0.019358605
0000e0 f6 12 40 3d 3e 82 98 3d 8c ce 44 bc 85 9a 8f 3d
       0.046893083 0.07446717 -0.012012135 0.07011894
0000f0 45 b6 b9 3d ff 18 84 3e 16 5b 9e 3e dc d4 5e 3e
       0.09067968 0.2580032 0.30928868 0.21760887
000100 01 b7 11 3e b2 b0 2e 3e fb 5f ad 3e 8e 38 56 3e
       0.14229967 0.17059591 0.3386229 0.20920011
000110 05 60 07 3e ea 94 0e be ff 65 aa bd db d8 99 3d
       0.13220222 -0.13923994 -0.083202355 0.07512065
000120 c0 ce b5 3c d7 1a db bd 7a fe 41 bd 7e ce b8 3c
       0.022193313 -0.10698479 -0.04736183 0.0225594
000130 2f cb 94 3e 88 5c 88 3e db b7 c9 3e 06 ff 64 3d
       0.29061267 0.26633096 0.39398083 0.05590727
000140 04 c2 cf 3d 78 e8 9b 3e 87 16 41 3e 47 b2 7a bd
       0.101444274 0.30450797 0.1885625 -0.061205175
000150 05 b8 80 bd 7b cb 9c bd 9d 57 98 be 37 94 ef be
       -0.06285099 -0.07655998 -0.29754344 -0.46792766
000160 cc 17 12 bf 22 e6 80 be a5 77 ae be 7e df 44 be
       -0.5706756 -0.25175577 -0.34075657 -0.1922588
000170 db f7 df be 20 3a 67 be fd 89 11 3e bb 3d 9a bc
       -0.43743786 -0.22580767 0.14212795 -0.018828264
000180 8e cd f1 bd 97 a8 77 3e 7c 77 00 3f 94 08 97 3e
       -0.118067846 0.24185406 0.5018232 0.29498732
000190 a0 ae 35 3d 2c 32 db 3d c0 06 68 3e bb 32 44 be
       0.04435599 0.10702929 0.22658825 -0.19159977
0001a0 96 23 06 bf 06 f7 1c 3e 98 af a4 3e eb 89 8e 3e
       -0.5239805 0.15328607 0.32165217 0.27839598
0001b0 ad a4 13 3e 4b fe f4 be 00 e8 27 3e b4 0a d7 3d
       0.14418288 -0.4785026 0.16397095 0.10500088
0001c0 75 a1 8e 3e 54 40 4c be 9b 9a e8 be 56 e5 73 3e
       0.27857557 -0.19946414 -0.45430455 0.23817953
0001d0 54 08 91 3e e2 1a c0 bc df d8 af be 3a 61 8a be
       0.28326666 -0.023450319 -0.34345147 -0.27027303
0001e0 12 2b 50 3d bb f3 0e 3e 1b 40 d7 bd 1e 5e 12 be
       0.050822325 0.13960163 -0.10510274 -0.14293715
0001f0 d7 d8 30 3e 66 1a 81 bd e7 14 06 be e0 4e 50 3d
       0.17270218 -0.06303863 -0.13093911 0.05085647
000200 0a 9e 92 3e 71 51 af 3e af 35 ce 3d 45 15 93 be
       0.286362 0.34241822 0.10068833 -0.28727165
000210 0c a0 bc be 80 e2 c8 be 48 e1 f7 bd bc 59 81 bc
       -0.36840856 -0.39235306 -0.12103516 -0.015789859
000220 93 cc 9b bd 93 08 bb be b7 8c 14 bf 10 d0 df be
       -0.07607379 -0.3652998 -0.58027214 -0.43713427
000230 98 e8 82 3e 7f 50 78 3e f5 41 11 3e d8 58 4c 3e
       0.2556808 0.24249457 0.14185317 0.19955766
000240 50 49 6c be fd 99 93 3c 06 58 b8 3e f2 bb ca 3e
       -0.23074841 0.018017763 0.36004657 0.39596516
000250 38 6c d0 3e 1b 7a f5 3d
       0.40707564 0.119861804

conv2d_1/Conv2D f4 [16, 5, 5, 6]
000000 d7 e4 1a bf 7a 4e 8b be 24 16 31 3e 89 ac 58 3e
       -0.6050543 -0.2720831 0.17293602 0.21159567
000010 d4 66 c5 3e 32 bb bd 3e f4 bd cc be e4 a2 09 bf
       0.38555014 0.3705688 -0.39988673 -0.53764176
000020 99 fd c1 be 6d 67 a0 3e bc ee db 3d 6e c9 97 3e
       -0.37888792 0.31328908 0.10738894 0.29645866
000030 89 89 0f bf 03 02 00 bf 10 dd 28 bf 0c 85 b9 3e
       -0.56069237 -0.5000307 -0.65962315 0.3623432
000040 86 0b b2 be 62 7c 53 3e 30 a1 03 bd aa bc a5 be
       -0.34774417 0.20652917 -0.032136142 -0.32370502
000050 72 04 f8 be 7c cb 7a 3e 04 61 df be 6d b6 6b 3e
       -0.48440892 0.24491686 -0.43628705 0.23018809
000060 58 97 4f 3e dd dd de bd 00 84 e8 be 11 c2 ec 3d
       0.20272577 -0.10882161 -0.45413208 0.11560453
000070 4b e3 4f bf ae 33 56 3c 43 53 b6 be bc d7 ba bd
       -0.81206197 0.013073845 -0.356104 -0.09123179
000080 99 3e e9 bd ca 76 7f 3e 0b cd ad 3e bb fd 80 3d
       -0.11388893 0.24947658 0.33945498 0.06298395
000090 4d 6e 1c bf 82 d5 9d bd 9b b4 1d be 61 85 37 be
       -0.61105806 -0.07706739 -0.15400927 -0.17921974
0000a0 24 ab 89 bd 4b 8c bc 3d 0a 9b 56 bf 64 ef be be
       -0.067220956 0.09206446 -0.8383032 -0.37292016
0000b0 e6 84 18 be 40 55 91 be 5f 2c 1e be 94 96 06 be
       -0.14894447 -0.28385353 -0.15446614 -0.13143378
0000c0 94 d1 88 bd e5 8c e0 be 6f 43 f6 be e8 91 5b 3e
       -0.06680599 -0.43857494 -0.48098323 0.21442378
0000d0 f0 f2 a4 be 77 e5 f8 bd 2f 3b 76 3e 42 11 a2 be
       -0.32216597 -0.12153142 0.24046014 -0.31653792
0000e0 21 5b de be 68 91 22 3e 17 68 06 bf 13 ae 6a be
       -0.434289 0.1587578 -0.5250258 -0.22917967
0000f0 c3 a1 57 be 6b 1d ce bd be 3e b2 3d 36 c3 81 3e
       -0.21057801 -0.10064205 0.087033734 0.25344247
000100 59 fa ed 3d 64 1a 28 be 30 82 19 be 96 d3 2c bf
       0.11620016 -0.16416317 -0.14991069 -0.67510355
000110 98 b5 10 be 9f cc 1c 3e f7 37 c8 3b 38 9b 01 bf
       -0.14131773 0.15312432 0.006110187 -0.5062747
000120 d9 91 33 bf d6 e9 4a bf 6c a8 02 bf 84 a6 a8 3e
       -0.7014442 -0.79263055 -0.5103824 0.3293954
000130 90 ab 35 3e 2f 57 a1 be 7a 2f 5c bd a5 69 52 be
       0.17741227 -0.31511828 -0.053756215 -0.20548113
000140 7c 35 49 bf 20 fd 00 3e 79 fa a9 bd 84 9e b8 be
       -0.78597236 0.1259656 -0.08299727 -0.36058438
000150 a7 67 f4 3d 46 0a 7b bd b7 42 0c bd 24 98 4c 3d
       0.119338326 -0.061289094 -0.03424331 0.04994978
000160 5f f4 5e be 9d d3 85 be fa 77 50 be 6a 6d ba be
       -0.21772908 -0.2613801 -0.20358267 -0.364116
000170 94 eb 63 bd 70 5b f3 3d 71 e6 36 3e 60 a6 2d 3e
       -0.055644587 0.11882675 0.17861344 0.16957998
000180 e7 b2 8a be 25 74 b3 be b8 db d8 be d6 11 a5 3c
       -0.27089617 -0.3504955 -0.42355132 0.020150106
000190 be 47 60 3d e6 c7 75 bc 92 44 17 bf 6c 37 ae 3b
       0.05475592 -0.015001273 -0.59089005 0.0053166654
0001a0 dd b0 01 bf 0c 5d 44 bd 29 66 14 be 32 d0 15 3e
       -0.50660497 -0.0479403 -0.14492096 0.14630201
0001b0 5f 23 38 3e ac 39 77 bd de 7a 18 bd 61 93 af bd
       0.17982243 -0.060357735 -0.03722655 -0.08573032
0001c0 af 25 45 bf 64 f4 45 3e 61 a6 0e 3e ce 92 7b 3d
       -0.77010626 0.19331509 0.13930656 0.0614193
0001d0 e2 27 cf 3d fd c4 94 be eb 44 ef be a4 55 e7 3c
       0.10115029 -0.2905654 -0.46732268 0.028239079
0001e0 d0 96 a2 be cc 76 b7 3d 48 49 2f 3d 19 ce ca bd
       -0.31755686 0.089582056 0.042794496 -0.09902591
0001f0 3f 53 fc 3c 3c 8f ff 3d d9 d2 26 bf 6f a9 01 be
       0.030801414 0.12478492 -0.6516548 -0.1266229
000200 22 f5 23 bd 17 b6 28 3e ca 94 84 be 1d c9 13 3e
       -0.0400287 0.16475712 -0.25894767 0.14432187
000210 75 34 d9 3d ed b9 3c 3e 5e 47 96 3a d0 da 36 3d
       0.106057085 0.184303 0.0011465361 0.04464227
000220 bb fd f9 be 05 9d 68 3c a6 ab 95 3c 02 25 3c 3e
       -0.48826393 0.014197593 0.018270325 0.18373492
000230 88 b8 1d 3e 4c 11 d1 bd 42 6d 04 bf a8 81 8c 3e
       0.15402424 -0.10208377 -0.51729214 0.2744267
000240 75 e2 b9 bd 82 75 49 3e 77 e1 c5 3e 2c e3 89 be
       -0.090763964 0.19673732 0.3864858 -0.2693113
000250 b9 a0 27 3b 76 ac 30 3e 19 4f f1 3d 36 03 c3 3c
       0.0025577976 0.17253289 0.11782665 0.023805242
000260 dd f3 24 bd 41 58 5f 3e be 9c 9b 3d a3 0a 5f be
       -0.04027163 0.2181101 0.075982556 -0.21781401
000270 b3 61 2a 3d 6b 32 49 3d f1 90 5e 3d d0 42 14 3d
       0.04159708 0.049120348 0.054337446 0.03619653
000280 50 8f 12 bd 4f d8 63 be 57 8e 8c 3d f7 de f3 3b
       -0.035781205 -0.22250484 0.06863087 0.007442351
000290 7e 7f 1e 3e 35 d2 33 be fb 76 8e 3e c6 df d7 bd
       0.15478322 -0.17560656 0.2782515 -0.10540728
0002a0 4e 15 46 3e b0 43 e1 3d 98 dc 16 3e 4b 43 d6 bd
       0.19344065 0.109992385 0.14732587 -0.10462054
0002b0 d9 96 0a 3e bc 61 b5 bd 34 10 75 3e d9 ae f1 3d
       0.13534106 -0.08856532 0.23931962 0.11800928
0002c0 c7 39 6d 3e a9 8d a5 be 84 4d eb 3d 7e 17 13 be
       0.23166572 -0.3233464 0.11489394 -0.1436443
0002d0 3d 53 b3 3a 71 21 cf ba f0 a9 bd bc 9a 5a 33 3e
       0.0013681423 -0.0015802813 -0.023152322 0.1751503
0002e0 4e c0 10 bd 3f 12 c5 be a7 fc 24 bd d9 1a a3 3e
       -0.035339646 -0.38490483 -0.04028001 0.3185642
0002f0 9a d3 87 3d d3 19 df be 0b 95 28 be f3 af 85 bf
       0.06632157 -0.4357439 -0.16463105 -1.044432
000300 4a 42 05 bd 86 ba a8 3e ad ab cc 3e d4 f6 0b bf
       -0.03253392 0.32954806 0.39974728 -0.54673505
000310 ec 80 97 3c c7 b6 00 be 2f ca 41 bd 2d 2d 8b 3e
       0.018494092 -0.12569724 -0.047311958 0.27182904
000320 93 5a 6a 3e fb 01 d6 be fd ae 63 3c 54 75 86 3e
       0.22886114 -0.41798386 0.013896701 0.2626139
000330 54 7f e8 bd 67 ed 40 3d a4 bf c3 3d 3e cf 84 bd
       -0.11352411 0.047101405 0.09558037 -0.06484841
000340 a2 a9 29 bc 5a a8 22 3f bf 61 a8 bd 46 d2 5d be
       -0.010355385 0.63538134 -0.082217686 -0.21662244
000350 40 b1 91 3d 87 6f b9 3e 94 df 24 be 63 9d 35 3f
       0.07113886 0.362179 -0.16100913 0.7094328
000360 73 5b 10 be e6 e7 bf bd 2e 48 47 be e3 62 ce 3e
       -0.14097385 -0.09370403 -0.19461128 0.4030982
000370 c5 b7 a5 be cf 73 d6 3e bd f7 80 3c 84 4f 62 3b
       -0.32366768 0.4188523 0.01574313 0.0034532258
000380 e4 5d 46 be 4f 4a de 3e 70 9e f6 bd fd 38 55 be
       -0.19371754 0.43416068 -0.12041938 -0.2082252
000390 29 35 f4 bc 1e fa 12 3d e3 3e 30 bd d9 d8 70 3e
       -0.029810505 0.03588306 -0.043028723 0.23520221
0003a0 80 bf 74 3d b7 05 b8 be de 03 db bd 35 50 1c 3e
       0.05975294 -0.3594186 -0.10694097 0.15264972
0003b0 bd 5e f4 3d 73 97 1a 3e 57 8a 95 3d d3 93 8d 3d
       0.119321324 0.15096836 0.07301777 0.06912961
0003c0 95 09 07 be d5 71 2e bd 91 e1 b4 3c 83 7d 61 bd
       -0.13187249 -0.042589027 0.022080215 -0.055051338
0003d0 fc 7c 06 3e df 93 04 3e 5d fe e6 be be 6c 28 3c
       0.13133615 0.12947033 -0.4511594 0.010279832
0003e0 05 64 09 be 38 a7 26 be 5b e2 f6 bd 18 04 10 3f
       -0.1341706 -0.16274726 -0.12054893 0.56256247
0003f0 a5 09 1f be 57 e7 60 be 32 8f 18 be f2 2b 18 3e
       -0.15531023 -0.21963249 -0.14898375 0.14860514
