model.tflite (tflite, 180820 bytes, 10 tensors)

dense_2/bias f4 [10]
-0.04088321 -0.19975284 -0.01553944 0.10568413 -0.08162055 -0.11178642 -0.12981467 -0.06870906
0.329208 0.12414598
00000000: 2775 27bd 028c 4cbe 2399 7ebc ec70 d83d
00000010: ad28 a7bd 47f0 e4bd 23ee 04be 56b7 8cbd
00000020: f38d a83e 3f40 fe3d

dense_1/bias f4 [84]
0.003781859 -0.0810785 0.030602952 -0.046274688 0.059834976 0.09184312 0.028150693 0.24911949
-0.008692102 0.21052049 -0.08515594 0.0055405535 -0.04393844 -0.062348045 -0.15461986 0.1414265
-0.19753446 -0.098047 0.10380075 0.082199246 0.0020793881 0.2301185 -0.20846295 0.12872289
0.1586498 -0.15258355 0.10380194 -0.12351578 0.061603796 0.17233558 -0.10149212 -0.13321875
0.058484 0.003364203 -0.05339918 -0.1320584 -0.0069089406 0.094931774 0.2819615 0.16432573
-0.0959927 -0.051129796 -0.08776855 -0.34418896 -0.11436227 0.2574341 -0.005505834 0.025902933
0.11271534 -0.007444229 -0.13164823 0.06498078 0.3323944 -0.117388226 0.4319613 0.13542731
-0.021555563 0.3028824 -0.10477298 0.11765099 0.21830021 -0.21925661 0.12371445 -0.20199044
0.19376346 0.11360977 -0.052873723 0.024479134 0.035596598 -0.16545004 0.008216313 0.07199591
0.09383423 -0.044551045 0.0030479676 -0.12341802 -0.061690036 0.18560706 0.18528965 0.14565848
0.060960066 0.09972188 0.15837796 -0.22691673
00000000: 11d9 773b 7c0c a6bd 0bb3 fa3c 878a 3dbd
00000010: 8515 753d 3f18 bc3d 489c e63c 2e19 7f3e
00000020: 5169 0ebc af92 573e 3d66 aebd 888d b53b
00000030: cbf8 33bd aa60 7fbd ab54 1ebe 1cd2 103e
00000040: 7946 4abe decc c8bd 7d95 d43d 1458 a83d
00000050: 5846 083b 2fa4 6b3e 5077 55be efcf 033e
00000060: 1875 223e dd3e 1cbe 1d96 d43d d7f5 fcbd
00000070: 4354 7c3d bd78 303e 1adb cfbd 7f6a 08be
00000080: eb8c 6f3d f679 5c3b 19b9 5abd 513a 07be
00000090: 6564 e2bb 976b c23d 425d 903e 0145 283e
000000a0: d297 c4bd 7a6d 51bd ffbf b3bd 8939 b0be
000000b0: c436 eabd 67ce 833e 486a b4bb 6332 d43c
000000c0: 4dd7 e63d b8ee f3bb cbce 06be a514 853d
000000d0: 992f aa3e 3d69 f0bd 082a dd3e 75ad 0a3e
000000e0: 4b95 b0bc 6713 9b3e 3793 d6bd 01f3 f03d
000000f0: 178a 5f3e ce84 60be 005e fd3d 95d6 4ebe
00000100: ee69 463e 3dac e83d 1e92 58bd 7788 c83c
00000110: bdcd 113d bc6b 29be b79d 063c 9772 933d
00000120: 292c c03d 287b 36bd 69c0 473b 96c2 fcbd
00000130: b1ae 7cbd c70f 3e3e 92bc 3d3e 7f27 153e
00000140: 43b1 793d fc3a cc3d d52d 223e dc5c 68be

dense/bias f4 [120]
-0.060024105 0.009575218 0.10122841 -0.076157875 -0.020176288 0.20585461 0.10473385 0.2575935
-0.040341195 -0.1139066 0.0062765265 0.079302505 0.052724726 0.18476753 -0.02427929 -0.11345504
-0.24029797 -0.1032677 0.18574946 -0.045957852 0.10776455 -0.06345843 0.02055484 0.11727243
-0.11096172 0.23969182 0.06787167 0.07673751 0.037240706 0.06350996 0.05930178 -0.16655143
-0.09375414 -0.058130044 -0.1516873 0.054949228 -0.16963756 -0.07992018 -0.12506305 -0.14886191
-0.0401518 -0.25025702 0.091421284 -0.0823546 -0.10877547 -0.021627534 0.0590599 0.0155083155
-0.011666371 0.08800615 0.1761026 0.19362687 -0.011904262 -0.101956666 -0.12763596 0.06072182
0.039402414 0.063953556 0.104237355 0.0070283087 -0.062370066 -0.052485168 0.10430579 -0.084979095
-0.17340752 -0.20118763 -0.02724216 -0.10650372 -0.01887657 0.11585454 -0.06929119 -0.039866224
-0.22288507 0.12502782 0.029695317 0.09135974 -0.021539856 -0.07684009 -0.10495888 -0.03669359
-0.052868556 -0.022517726 0.045752633 -0.056876555 0.105609775 0.0041829483 -0.019621868 -0.10265734
-0.14140351 0.11406462 0.19561069 0.029549021 -0.05212787 0.024523849 -0.079387456 -0.11134996
0.075494036 0.16088346 -0.06911384 -0.034300737 0.06518666 -0.00900868 -0.019099452 0.07355335
-0.031997774 -0.055000287 0.009723706 -0.06895099 -0.04175042 -0.0205919 0.013507187 -0.061643627
0.14059484 -0.036799382 0.007257328 0.06789756 -0.058065414 0.10445504 -0.025412971 0.022810424
00000000: d6db 75bd 60e1 1c3c d750 cf3d a9f8 9bbd
00000010: be48 a5bc 8dcb 523e b37e d63d 4ce3 833e
00000020: cf3c 25bd dd47 e9bd 52ab cd3b 5a69 a23d
00000030: e2f5 573d b333 3d3e 5de5 c6bc 1e5b e8bd
00000040: ac10 76be 047e d3bd 1b35 3e3e 4d3e 3cbd
00000050: a9b3 dc3d 7ef6 81bd a062 a83c 872c f03d
00000060: e63f e3bd c671 753e 4d00 8b3d 8e28 9d3d
00000070: b689 183d 8311 823d 6ce6 723d 758c 2abe
00000080: 2c02 c0bd c519 6ebd ea53 1bbe 7112 613d
00000090: 78b5 2dbe 31ad a3bd 8710 00be 426f 18be
000000a0: 3776 24bd b021 80be 153b bb3d 87a9 a8bd
000000b0: acc5 debd 3a2c b1bc cbe8 713d 9716 7e3c
000000c0: 4e24 3fbc 923c b43d 3d54 343e 1f46 463e
000000d0: 180a 43bc a8ce d0bd 00b3 02be 71b7 783d
000000e0: 6d64 213d 15fa 823d 657a d53d ba4d e63b
000000f0: c177 7fbd b0fa 56bd 469e d53d 8509 aebd
00000100: be91 31be 2104 4ebe f32a dfbc 9f1e dabd
00000110: 09a3 9abc 2545 ed3d 8ae8 8dbd c44a 23bd
00000120: fc3b 64be 4b07 003e 9843 f33c d11a bb3d
00000130: 5a74 b0bc 565e 9dbd aef4 d6bd 054c 16bd
00000140: b38c 58bd 1877 b8bc 1d67 3b3d 64f7 68bd
00000150: f049 d83d 1d11 893b 0abe a0bc 033e d2bd
00000160: 15cc 10be b69a e93d 2b4e 483e ca10 f23c
00000170: 0984 55bd 3de6 c83c e495 a2bd 730b e4bd
00000180: 9e9c 9a3d a2be 243e 8f8b 8dbd ee7e 0cbd
00000190: 9580 853d 2499 13bc 7476 9cbc 24a3 963d
000001a0: 1910 03bd fb47 61bd 2e50 1f3c 2d36 8dbd
000001b0: 7d02 2bbd 58b0 a8bc 404d 5d3c 077e 7cbd
000001c0: 18f8 0f3e f3ba 16bd e1ce ed3b e00d 8b3d
000001d0: 00d6 6dbd 86ec d53d dd2e d0bc eddc ba3c

conv2d_1/bias f4 [16]
-0.025338309 0.004153619 0.07535149 0.11809965 0.020936163 0.107835226 0.09302768 -0.0009433743
-0.0063502407 -0.16040555 0.033188563 -0.0286601 -0.028724175 -0.059149712 0.07657775 0.18849196
00000000: 4992 cfbc 151b 883b e251 9a3d 3bde f13d
00000010: 5182 ab3c b7d8 dc3d 4c85 be3d c74c 77ba
00000020: ae15 d0bb 5a41 24be bbf0 073d 96c8 eabc
00000030: f64e ebbc f846 72bd ccd4 9c3d 0904 413e

conv2d/bias f4 [6]
0.01505153 0.0068018083 -0.28663763 0.10324479 -0.16906908 0.010459846
00000000: b19a 763c b4e1 de3b 2bc2 92be 0172 d33d
00000010: 7220 2dbe c65f 2b3c

dense/MatMul f4 [120, 256]
-0.28215787 -0.44571888 0.15061009 -0.44215673 -0.05584893 0.0720475 0.025637854 -0.05321762
-0.123508506 -0.31519157 0.12242075 0.011635049 0.38075557 -0.11871134 0.12253336 0.1521427
0.06298498 -0.11161817 0.23110387 -0.0032166603 -0.025944585 0.21515892 -0.05669517 0.16678756
-0.1293574 0.011438179 0.11401889 0.11324964 0.057424773 -0.28851417 -0.40343207 0.10347946
0.14491045 -0.13280989 0.4983159 -0.04868916 -0.28103703 0.26344788 0.4409965 -0.10654946
0.09249399 0.12075324 -0.08878981 0.084242895 0.15577386 -0.11785377 0.25690246 -0.15759872
0.12364358 -0.26719666 0.20336504 -0.07546574 -0.032130335 -0.13513981 0.10849444 -0.18632412
-0.049441285 -0.066781126 0.11301459 -0.013416611 0.17839079 -0.14520973 0.31953663 0.030867545
0.10441387 0.10304227 -0.42531866 0.20003167 0.14414379 -0.16637172 -0.44389337 0.14566326
-0.36213323 -0.11218727 -0.3743332 -0.047286958 0.2219436 -0.095101826 -0.5289848 0.4588527
-0.07684516 0.010623105 -0.3417532 0.080979675 0.015067637 -0.37612167 0.12224679 -0.111910164
0.12192602 0.41390663 0.10607234 -0.03320333 0.0654995 -0.22181657 0.22250302 0.111878805
0.16620111 0.1815932 -0.33385792 -0.11732805 -0.19394264 0.12621315 -0.33034453 0.12233304
-0.25962257 0.07142404 0.034100696 0.10931358 0.010591505 -0.31473416 0.032810535 -0.09580983
0.3368315 0.052110244 0.21354952 -0.14177915 -0.04342389 -0.13178076 0.43163046 0.24506077
-0.16433768 -0.29246223 -0.23000279 -0.06325732 0.040154703 -0.12015598 0.087141715 0.14253308
-0.12090248 -0.0012371131 -0.033082288 0.18034673 0.11135613 0.34165218 -0.060845245 -0.09031537
-0.30197287 -0.2512473 0.060693916 -0.28926802 0.03801292 0.13155663 -0.062192995 -0.3666078
0.062660985 0.23662907 0.18352103 0.6085047 0.16286264 0.21695374 0.15269692 -0.037110146
0.12419646 0.051933106 0.35740882 -0.2898326 0.18853892 0.19339505 0.12499228 -0.12215357
0.16885565 0.15829758 0.3372364 0.23116921 -0.3177023 0.025115296 0.17885233 -0.31959274
0.14270534 -0.52446043 0.23291205 -0.10045947 0.34053674 0.012752969 0.034907874 0.19151795
-0.14695905 0.10424777 0.16957705 -0.15292415 -0.13843618 0.2047414 0.35665628 -0.023658307
0.04850054 -0.20620932 -0.23614947 0.058410052 0.60167485 -0.26466578 -0.4040128 0.19205783
0.13664974 0.062479883 -0.11219227 0.04110877 0.10389618 -0.0752008 -0.19069345 -0.21090293
0.3562652 -0.13345042 0.1761992 -0.07335777 -0.080027446 -0.03480077 0.08310858 0.26074252
-0.0066506476 -0.029072182 -0.019262688 0.06811348 -0.08442439 0.19922389 -0.28451473 -0.0055809054
0.24058908 0.13516372 0.029244192 -0.11919804 0.082385845 -0.22415791 0.021190403 0.1975846
-0.35012564 0.11266065 0.024387967 0.66064954 -0.14377682 0.42698076 -0.22083856 -0.065262236
-0.069554426 0.28163743 -0.1609491 -0.09843033 -0.11974505 -0.2591182 -0.07037472 -0.097274005
-0.14851616 0.057731774 -0.43041503 0.081555955 0.3695176 0.08757836 -0.08822345 0.05815507
-0.3287124 0.20691523 -0.12573765 0.101679154 -0.13365565 0.076767355 -0.26086593 -0.21008112
00000000: ff76 90be 4435 e4be 8839 1a3e 5e62 e2be
00000010: d9c1 64bd a48d 933d 7a06 d23c b8fa 59bd
00000020: 07f2 fcbd ca60 a1be bbb7 fa3d efa0 3e3c
00000030: 65f2 c23e ee1e f3bd c5f2 fa3d 4ccb 1b3e
00000040: 45fe 803d 1198 e4bd 7ea6 6c3e 9bce 52bb
00000050: bd89 d4bc 9f52 5c3e 3239 68bd 5cca 2a3e
00000060: 4476 04be 3367 3b3c bc82 e93d 6def e73d
00000070: 3d36 6b3d 21b8 93be a68e cebe 0aed d33d
00000080: 6863 143e 51ff 07be 4323 ff3e 496e 47bd
00000090: 16e4 8fbe a4e2 863e 4bca e13e 9a36 dabd
000000a0: 7d6d bd3d 7a4d f73d 6fd7 b5bd 8a87 ac3d
000000b0: 2f83 1f3e 515d f1bd b888 833e 8f61 21be
000000c0: d838 fd3d 00ce 88be ed3e 503e c88d 9abd
000000d0: 199b 03bd 1762 0abe 5532 de3d c0cb 3ebe
000000e0: f282 4abd 8bc4 88bd 3274 e73d 58d1 5bbc
000000f0: 13ac 363e dcb1 14be 4e9a a33e efdd fc3c
00000100: f0d6 d53d d307 d33d 5ec3 d9be 1ad5 4c3e
00000110: 6e9a 133e 595d 2abe fe45 e3be c028 153e
00000120: 8769 b9be 70c2 e5bd 9aa8 bfbe f8af 41bd
00000130: 2f45 633e bfc4 c2bd 8c6b 07bf beee ea3e
00000140: ff60 9dbd 880c 2e3c 47fa aebe acd8 a53d
00000150: 40de 763c 0593 c0be 865c fa3d 2831 e5bd
00000160: 59b4 f93d 92eb d33e 743c d93d 3700 08bd
00000170: 9a24 863d e223 63be d5d7 633e b720 e53d
00000180: a030 2a3e 91f3 393e 6def aabe b049 f0bd
00000190: e698 46be 053e 013e eb22 a9be bf89 fa3d
000001a0: 40ed 84be c446 923d 2cad 0b3d ccdf df3d
000001b0: fe87 2d3c d624 a1be 5764 063d f237 c4bd
000001c0: 2e75 ac3e 8d71 553d baac 5a3e 8e2e 11be
000001d0: 40dd 31bd 89f1 06be abfe dc3e 36f1 7a3e
000001e0: 2348 28be 9cbd 95be da85 6bbe 0e8d 81bd
000001f0: 4279 243d 5714 f6bd 5b77 b23d 31f4 113e
00000200: b89b f7bd a126 a2ba 4b81 07bd d0ac 383e
00000210: af0e e43d 09ed ae3e dd38 79bd 44f7 b8bd
00000220: 309c 9abe 7ca3 80be 2f9a 783d f01a 94be
00000230: 70b3 1b3d c8b6 063e 15be 7ebd 04b4 bbbe
00000240: 6754 803d e44e 723e f0ec 3b3e f7c6 1b3f
00000250: 77c5 263e 1f29 5e3e 955c 1c3e cf00 18bd
00000260: b75a fe3d cfb7 543d 4afe b63e f064 94be
00000270: 5910 413e 5a09 463e f4fb ff3d a72b fabd
00000280: 7fe8 2c3e c318 223e 40aa ac3e 9fb7 6c3e
00000290: e0a9 a2be 98be cd3c 1125 373e a9a1 a3be
000002a0: 5921 123e 0a43 06bf 7f80 6e3e b2bd cdbd
000002b0: d55a ae3e d4f1 503c 8ffb 0e3d 481d 443e
000002c0: 6f7c 16be db7f d53d 9ba5 2d3e 2698 1cbe
000002d0: 37c2 0dbe bba7 513e a79b b63e 11cf c1bc
000002e0: 81a8 463d 8928 53be 2bd1 71be 613f 6f3d
000002f0: 5d07 1a3f 4682 87be c4da cebe cfaa 443e
00000300: e9ed 0b3e e8ea 7f3d 10c5 e5bd ab61 283d
00000310: 85c7 d43d e102 9abd 2545 43be f0f6 57be
00000320: 6468 b63e 3aa7 08be 906d 343e 993c 96bd
00000330: 6ee5 a3bd 418b 0ebd d534 aa3d 0b80 853e
00000340: aded d9bb c928 eebc c9cc 9dbc 157f 8b3d
00000350: b2e6 acbd 5901 4c3e eaab 91be 07e0 b6bb
00000360: fc5c 763e 5c68 0a3e 8491 ef3c 1a1e f4bd
00000370: e9b9 a83d a789 65be 7f97 ad3c 9e53 4a3e
00000380: ab43 b3be a0ba e63d 46c9 c73c 5420 293f
00000390: 3b3a 13be 399d da3e 8123 62be 35a8 85bd
000003a0: 8d72 8ebd c832 903e d7cf 24be d795 c9bd
000003b0: e53c f5bd 24ab 84be 9f20 90bd 9837 c7bd
000003c0: 9f14 18be 2778 6c3d 5c5f dcbe cf06 a73d
000003d0: 6931 bd3e 495c b33d 7fae b4bd 0334 6e3d
000003e0: fe4c a8be 96e1 533e 5fc1 00be 293d d03d
000003f0: 07dd 08be 3438 9d3d 3890 85be 811f 57be

dense_1/MatMul f4 [84, 120]
0.33426479 0.1741494 0.15532005 0.21169515 0.01478127 0.11055413 0.0005049314 -0.7479536
0.15529194 0.07380565 0.16576771 0.5309864 0.30089822 0.15339306 -0.15873651 -0.4138665
-0.335239 0.43832114 -0.35724202 0.13580424 0.2974843 0.1472499 -0.13398114 0.43793413
0.21428815 0.21100636 0.273428 -0.14443877 -0.34508383 -0.0964053 0.18739824 0.375947
-0.1818817 -0.10610206 0.18921818 -0.094071575 0.09064521 0.12751195 0.38970482 -0.04096692
0.351456 0.01814209 0.15391937 -0.15146583 0.24739583 0.21727452 0.28747904 0.0017337655
0.026272709 0.026678955 -0.05741805 -0.29564306 0.3312472 -0.22316316 0.6050273 0.010618179
-0.21278259 0.26628813 -0.18565361 -0.11112668 0.14047265 0.07432418 -0.24762774 -0.011630241
0.27900088 0.14583877 0.086499006 -0.22590409 0.013723976 -0.15261844 0.08165062 0.046871748
0.5114778 -0.36388996 0.1149065 0.14261048 0.43290463 0.2127919 -0.069712654 -0.07033602
-0.56288606 -0.24682675 -0.07529537 -0.018625163 -0.06304356 -0.40775126 0.056906257 -0.46194232
0.34813648 0.19628796 0.12195417 -0.02294945 0.08664198 -0.43664655 0.040341984 -0.1258296
-0.27519313 0.1237423 0.062139466 0.066454045 -0.1377881 -0.00946548 -0.040873203 -0.68613064
-0.34652537 0.24825197 0.20656359 0.16514884 0.2683581 -0.10894422 -0.13700569 0.08588096
-0.08334743 0.20359072 -0.0048705637 -0.56573015 -0.21244362 -0.20983675 -0.04970164 -0.0392702
-0.019611424 -0.049267303 0.10715148 -0.37035018 -0.10491851 -0.26696107 -0.10671651 0.2330636
0.1871092 -0.1086223 -0.6142713 0.0023515467 0.11921209 -0.23625687 -0.050160732 -0.049532227
0.27796677 0.2149511 -0.23823579 0.11921761 0.1623661 0.009264355 -0.23460571 0.11573303
0.2976888 -0.2160997 -0.039544858 0.2112965 0.3224569 0.4088442 0.2406478 -0.29219162
-0.05784626 0.10634306 -0.11783438 0.43810108 -0.10215944 -0.021152856 -0.1324452 0.21359214
0.19648354 0.4199968 -0.23945053 0.2240952 0.6107754 0.18641648 0.056663882 0.12835205
0.23168097 -0.29283205 0.15951492 -0.34003988 0.021752538 -0.19549897 -0.04557821 -0.09700493
0.1115847 -0.116407566 0.17989357 -0.16098227 -0.0463421 0.025078464 -0.2822649 0.08157707
-0.21332438 -0.22842708 -0.017205564 0.07433929 0.12881076 0.25840768 0.07251048 -0.022746397
-0.121353514 0.022232492 0.13625255 0.38839036 0.36726266 -0.150442 -0.0060977037 -0.14671628
-0.01145793 0.14162707 0.2877625 0.08780762 0.29267332 -0.28593704 0.009938503 0.25021458
-0.2593758 0.10391733 -0.3239291 -0.37290537 0.26252666 0.313662 -0.22212815 0.056767397
-0.15724196 0.12983274 0.057985403 0.0022889567 0.16758832 -0.3149026 0.3318745 0.543301
0.23717892 0.3325478 0.18679802 0.10323577 -0.09247336 0.01641315 -0.30878806 0.51904047
-0.121775486 0.22778957 0.046517402 -0.016555477 0.21674518 0.21861614 0.042827986 -0.31936556
0.22040497 0.052409004 0.018561281 -0.015904346 -0.036683116 -0.36115846 -0.16378069 -0.12862378
-0.031741805 -0.36876786 0.10531441 0.26941097 0.44506785 0.16064659 0.053480912 0.16433117
00000000: c124 ab3e 3854 323e 380c 1f3e 9dc6 583e
00000010: 242d 723c 346a e23d 5f5d 043a e379 3fbf
00000020: da04 1f3e 6b27 973d 03bf 293e baee 073f
00000030: 550f 9a3e 1213 1d3e d38b 22be 4fe6 d3be
00000040: 72a4 abbe a16b e03e 6de8 b6be 4410 0b3e
00000050: dd4f 983e aec8 163e 5a32 09be e738 e03e
00000060: 5a6e 5b3e 0d12 583e c1fe 8b3e c2e7 13be
00000070: d4ae b0be 2470 c5bd 53e5 3f3e 207c c03e
00000080: 323f 3abe 094c d9bd 69c2 413e 99a8 c0bd
00000090: 32a4 b93d 7e92 023e 6487 c73e eecc 27bd
000000a0: 0af2 b33e b89e 943c 0a9d 1d3e dc19 1bbe
000000b0: 5555 7d3e 367d 5e3e 7430 933e 843f e33a
000000c0: dd39 d73c d38d da3c 302f 6bbd 875e 97be
000000d0: 3c99 a93e e284 64be 12e3 1a3f dff7 2d3c
000000e0: aee3 59be eb56 883e fb1b 3ebe 6396 e3bd
000000f0: 10d8 0f3e 4737 983d 2092 7dbe c48c 3ebc
00000100: 34d9 8e3e c256 153e 6426 b13d 6753 67be
00000110: 87da 603c 0248 1cbe 7138 a73d 97fc 3f3d
00000120: 36f0 023f c94f babe 1954 eb3d 7b08 123e
00000130: ada5 dd3e 1fe6 593e 82c5 8ebd 550c 90bd
00000140: 4d19 10bf 27c0 7cbe 7534 9abd cc93 98bc
00000150: fb1c 81bd c6c4 d0be 8916 693d b483 ecbe
00000160: f23e b23e b6ff 483e 1cc3 f93d 7c00 bcbc
00000170: 5a71 b13d 2390 dfbe a33d 253d 7ad9 00be
00000180: 1de6 8cbe 9a6c fd3d f485 7e3d 0f19 883d
00000190: 5318 0dbe 1a15 1bbc a96a 27bd 42a6 2fbf
000001a0: c66b b1be c435 7e3e 6885 533e c71c 293e
000001b0: 3c66 893e 261e dfbd 384b 0cbe 5be2 af3d
000001c0: 0fb2 aabd 167a 503e 4099 9fbb b1d3 10bf
000001d0: d28a 59be 72df 56be f293 4bbd cad9 20bd
000001e0: 23a8 a0bc 83cc 49bd 3c72 db3d 8a9e bdbe
000001f0: 84df d6bd 1faf 88be 308e dabd 39a8 6e3e
00000200: 8e99 3f3e 5e75 debd e240 1dbf 681c 1a3b
00000210: 7825 f43d 52ed 71be 5775 4dbd 4ee2 4abd
00000220: a951 8e3e 241c 5c3e 15f4 73be 5d28 f43d
00000230: 4d43 263e 85c9 173c 7b3c 70be 7005 ed3d
00000240: ab6a 983e 3d49 5dbe caf9 21bd 1c5e 583e
00000250: 1219 a53e 0754 d13e 606c 763e 249a 95be
00000260: 33f0 6cbd 64ca d93d 2753 f1bd c94e e03e
00000270: f838 d1bd c148 adbc b79f 07be e6b7 5a3e
00000280: fb32 493e d209 d73e 8532 75be 3679 653e
00000290: c75b 1c3f f6e3 3e3e 6318 683d b86e 033e
000002a0: c73d 6d3e 15ee 95be e157 233e b519 aebe
000002b0: 6132 b23c e230 48be 38b0 3abd 85aa c6bd
000002c0: 8586 e43d 1767 eebd 0536 383e 89d8 24be
000002d0: 37d1 3dbd 5a71 cd3c 0685 90be e111 a73d
000002e0: b571 5abe cae8 69be aff2 8cbc 333f 983d
000002f0: f8e6 033e 034e 843e 6080 943d a756 babc
00000300: 3188 f8bd ea20 b63c ca85 0b3e 1adb c63e
00000310: da09 bc3e 780d 1abe 3fcf c7bb cb3c 16be
00000320: 0bba 3bbc b006 113e 9b55 933e 7bd4 b33d
00000330: 47d9 953e 5766 92be 1ad5 223c 201c 803e
00000340: e8cc 84be 9cd2 d43d 09da a5be 74ed bebe
00000350: e569 863e 4e98 a03e 9075 63be ee84 683d
00000360: 0904 21be e0f2 043e 1a82 6d3d 5202 163b
00000370: 469c 2b3e ea3a a1be 74eb a93e c615 0b3f
00000380: 08df 723e b543 aa3e fb47 3f3e 466d d33d
00000390: ac62 bdbd df74 863c 7819 9ebe d6df 043f
000003a0: 6d65 f9bd ab41 693e 0889 3e3d 5a9f 87bc
000003b0: 73f2 5d3e e9dc 5f3e 666c 2f3d e283 a3be
000003c0: d7b1 613e d3aa 563d d40d 983c d549 82bc
000003d0: 0941 16bd c3e9 b8be 20b6 27be f4b5 03be
000003e0: b203 02bd 24cf bcbe 15af d73d 3cf0 893e
000003f0: efdf e33e 8a80 243e cd0e 5b3d 6e46 283e

dense_2/MatMul f4 [10, 84]
-0.28132436 0.11770124 0.04418567 0.36862713 -0.20065321 0.07259331 -0.101077996 -0.48673943
-0.36647782 -0.6612216 0.056055825 -0.11192442 0.07152915 0.024813673 -0.17683417 0.31144598
0.36154893 -0.53222746 0.45588452 -0.23684922 -0.2724558 -1.181274 -0.49765202 0.14994542
-0.66051704 0.5051984 0.14675488 0.36182305 0.10699146 0.0064121564 0.06133761 -0.47967735
-0.6785629 -0.09663264 -0.032679748 0.15699944 0.028372088 -0.87752604 -0.12261897 0.053125124
-0.61729044 0.2668633 0.39888072 0.0459263 -0.43980113 -0.06706794 -0.09599974 -0.5833753
0.35107225 0.17074478 -0.38437495 0.093447745 -0.028911222 0.38531953 0.266544 -0.95174116
-0.45734677 0.2832321 -0.69531876 -0.296637 0.34109268 0.10933536 0.2835778 -0.43169484
-0.7586532 0.33265832 -0.32250053 -0.2192096 -0.6280949 0.26217213 -0.8756543 0.025747137
-0.3404225 0.2364296 -0.16035485 -0.04082762 -0.48208916 0.36844754 -0.4000191 -0.23808153
0.15318672 -0.58331263 -0.18453747 0.29050064 -0.21282597 0.056085337 -0.07463334 0.2854136
-0.18491425 -0.60467535 -0.009791299 -0.45023596 -0.0016035507 0.17775129 -0.6046184 -0.20546184
0.05772582 -0.8909341 0.22340265 -0.31617156 0.23338799 -0.47386944 -0.60109097 -0.4347937
-0.017218381 0.07314627 0.13707551 0.11556571 -0.18920484 0.282343 -0.21089068 -0.3907791
-0.447127 -0.5750911 0.3425253 -0.135771 0.26307726 0.27384138 -0.19532973 0.004291664
0.11507087 0.21700808 0.19209458 -0.4220477 0.18196203 -0.41782555 -0.14171204 0.2468868
0.05337094 0.22781402 -0.33887038 0.16906087 -0.43864268 0.34386227 0.22439282 0.18287753
-0.2245235 -0.06021817 0.09726745 0.15439808 0.43559596 -0.31797054 0.19701149 -0.5973367
-0.5159232 0.18525143 -0.22295138 0.26640737 0.25135884 -0.26956266 0.20426472 0.44907376
0.26185232 0.24461347 0.27102664 -0.5220526 0.0036739039 0.32103106 0.36306363 0.46313664
-0.31827152 -0.022232994 -0.71166235 -0.26997286 -0.58245873 -0.035366967 0.14019127 0.47766304
0.35419163 -0.47497126 -0.006378982 0.18798657 -0.25686392 0.23771709 -0.32777527 -0.078684494
-0.114760384 -0.204899 -0.009103699 0.034644794 -0.6607195 -0.49091998 -0.7200594 -0.20898196
0.07368101 0.03015495 -0.16837904 -0.4330708 -0.3381455 -0.3138161 -0.40771034 0.307525
-0.036320027 0.08675269 -0.1755677 -0.36800757 -0.27689382 -0.2662952 -0.31602496 -0.01810102
-0.65316296 0.07475325 -0.4300388 -0.3321503 0.21666309 0.15215124 0.20845087 -0.0008868933
-0.5981233 -0.09354125 0.18586548 0.23528041 -0.6966266 -0.4214607 0.2565143 -0.6673002
-0.9278233 0.4173334 -0.15408736 -0.30150104 0.029016843 0.10862588 -0.9750443 0.08161472
-0.498062 -0.11761725 0.29861268 0.3824018 0.19651988 0.124134496 0.26903436 0.32482865
0.22327155 -0.38747776 0.010310702 -0.5799118 0.27030236 -0.38903257 0.35579437 0.25459915
0.04241771 -0.10698253 -0.23286071 -0.78284436 -0.41008204 -0.09591845 -0.4045944 0.35716403
-0.26107264 -0.5755798 0.34488872 -0.14223784 0.17385921 0.40078148 0.31913447 -0.2891251
00000000: bf09 90be 590d f13d 08fc 343d b2bc bc3e
00000010: 0978 4dbe cdab 943d fb01 cfbd e935 f9be
00000020: fba2 bbbe d245 29bf cb9a 653d a138 e5bd
00000030: e07d 923d 0b46 cb3c 0414 35be d975 9f3e
00000040: f11c b93e 0f40 08bf b269 e93e 9a88 72be
00000050: 547f 8bbe fd33 97bf 3fcc febe 4b8b 193e
00000060: a517 29bf af54 013f e946 163e df40 b93e
00000070: 571e db3d 111d d23b 253d 7b3d 4598 f5be
00000080: 4cb6 2dbf 55e7 c5bd 33db 05bd 76c4 203e
00000090: 956c e83c 8ca5 60bf a81f fbbd bb99 593d
000000a0: bf06 1ebf 4ea2 883e 183a cc3e 371d 3c3d
000000b0: 9d2d e1be eb5a 89bd 839b c4bd 1558 15bf
000000c0: bebf b33e b8d7 2e3e cbcc c4be 8861 bf3d
000000d0: 3ad7 ecbc 9a48 c53e 7578 883e 4fa5 73bf
000000e0: 5b29 eabe cc03 913e 6900 32bf cee0 97be
000000f0: b3a3 ae3e 38eb df3d 1c31 913e 1b07 ddbe
00000100: 1937 42bf 3152 aa3e ca1e a5be 7b78 60be
00000110: d4ca 20bf 6d3b 863e e12a 60bf a9eb d23c
00000120: dc4b aebe 9a1a 723e 1034 24be dd3a 27bd
00000130: 64d4 f6be 28a5 bc3e 4ecf ccbe a5cb 73be
00000140: fbdc 1c3e fa53 15bf 64f7 3cbe 80bc 943e
00000150: 0def 59be bdb9 653d 5dd9 98bd bb21 923e
00000160: 295a 3dbe 01cc 1abf af6b 20bc 5485 e6be
00000170: 3c2e d2ba 6f04 363e 45c8 1abf 9764 52be
00000180: e971 6c3d 4214 64bf aac3 643e 3de1 a1be
00000190: 43fd 6e3e 049f f2be 19e1 19bf 489d debe
000001a0: 900d 8dbc b6cd 953d 865d 0c3e b7ad ec3d
000001b0: eabe 41be 438f 903e baf3 57be 3314 c8be
000001c0: d5ed e4be 2c39 13bf 7a5f af3e 8e07 0bbe
000001d0: 10b2 863e f034 8c3e 8404 48be 16a1 8c3b
000001e0: 47aa eb3d 5e37 5e3e 71b4 443e a316 d8be
000001f0: 4154 3a3e 3bed d5be f61c 11be e5cf 7c3e
00000200: 7d9b 5a3d 1448 693e 6b80 adbe 4b1e 2d3e
00000210: c695 e0be b70e b03e 3bc7 653e 3f44 3b3e
00000220: 7de9 65be 54a7 76bd 2834 c73d 881a 1e3e
00000230: 6f06 df3e 09cd a2be 61bd 493e 0feb 18bf
00000240: 8b13 04bf 8db2 3d3e 5e4d 64be 8c66 883e
00000250: 1bb2 803e 1e04 8abe c52a 513e ffec e53e
00000260: 8211 863e f47b 7a3e 01c4 8a3e 3da5 05bf
00000270: e1c5 703b 2f5e a43e 7ae3 b93e 3f20 ed3e
00000280: 7cf4 a2be f821 b6bc 812f 36bf e239 8abe
00000290: 041c 15bf f4dc 10bd 4d8e 0f3e 4090 f43e
000002a0: 9b58 b53e 6f2f f3be c806 d1bb 8d7f 403e
000002b0: ab83 83be 1c6c 733e 29d2 a7be 5625 a1bd
000002c0: 7e07 ebbd 0bd1 51be ae27 15bc b3e7 0d3d
000002d0: ea24 29bf dd59 fbbe d055 38bf 5eff 55be
000002e0: 12e6 963d 8407 f73c 8e6b 2cbe 75bb ddbe
000002f0: 6821 adbe 81ac a0be 69bf d0be eb73 9d3e
00000300: 4fc4 14bd 65ab b13d 05c8 33be 7d6b bcbe
00000310: 07c5 8dbe d857 88be 06ce a1be 9748 94bc
00000320: b035 27bf 3b18 993d 0c2e dcbe 9b0f aabe
00000330: eedc 5d3e 89cd 1b3e 2574 553e 677e 68ba
00000340: 9c1e 19bf 8e92 bfbd 8553 3e3e 59ed 703e
00000350: 1f56 32bf b2c9 d7be d855 833e 30d4 2abf
00000360: d485 6dbf b9ac d53e 14c9 1dbe 585e 9abe
00000370: bbb4 ed3c 3f77 de3d 819c 79bf 9e25 a73d
00000380: fc01 ffbe 50e1 f0bd c3e3 983e 2bca c33e
00000390: 823c 493e 3a3a fe3d dfbe 893e f14f a63e
000003a0: 4ca1 643e 7c63 c6be 38ee 283c 1a75 14bf
000003b0: 1265 8a3e 472f c7be ae2a b63e d25a 823e
000003c0: 31be 2d3d a819 dbbd 0a73 6ebe 7d68 48bf
000003d0: 46f6 d1be e470 c4bd ff26 cfbe 34de b63e
000003e0: 50ab 85be 3359 13bf 4195 b03e cca6 11be
000003f0: 2608 323e 3b33 cd3e 9865 a33e 3508 94be

conv2d/Conv2D f4 [6, 5, 5, 1]
-0.005793088 -0.39771864 -0.31456238 0.008841039 0.06069555 -0.14611758 -0.6052817 -0.49042806
-0.3068201 -0.19986917 0.32975256 0.30549493 -0.008840229 0.3625364 0.18305482 0.41306132
0.5348563 0.3303934 -0.033019714 -0.2792279 0.2381898 0.27683616 0.40966243 0.30784336
-0.11705716 0.13522232 -0.12175373 -0.33379132 0.27497062 0.14783877 0.29049855 -0.4480092
-0.3172804 0.17776163 0.33159348 0.31661344 -0.62399197 -0.4553757 0.14040339 0.40201506
0.22528026 -0.7177244 -0.2980768 0.3199971 0.40494564 0.07093125 -0.59433067 -0.33403635
0.30655205 0.42064747 0.04184271 0.011191839 -0.3863682 0.11106498 0.08388414 -0.3330075
-0.22573222 -0.13356017 0.2742432 0.08428653 -0.4637705 0.012072192 0.45527214 0.50906485
0.11762637 0.09893742 0.49830478 0.42925584 0.13345233 -0.12441164 0.0945813 0.24443665
-0.14593594 -0.11517709 -0.33290002 -0.109603524 -0.16187327 -0.08365096 0.117309965 0.12059619
0.08542099 0.3930861 0.4822048 0.2979895 0.1877645 0.100918144 0.46844947 0.31194937
0.5334605 0.36086702 -0.4047472 -0.5946378 -0.27607355 -0.07437382 0.008342969 -0.3666403
-0.7553155 -0.7798046 -0.44007707 -0.14115186 0.06585993 0.27179226 0.23190096 -0.15260303
-0.45557442 0.024148967 0.35260516 0.38356435 0.3082179 -0.15259035 0.013920804 0.058408782
0.18085247 0.30042914 -0.29212624 0.121302836 -0.020425495 0.10591263 0.04037365 -0.00459359
-0.0988483 -0.03588109 -0.010974019 0.03795947 -0.016145932 0.13218693 0.3787361 0.362131
0.40698385 0.15922275 0.1614247 0.050098147 0.31326008 0.33605388 0.33297035 -0.1571685
-0.2786868 -0.1990878 -0.14601709 -0.027857484 -0.082899176 -0.6565745 -0.6394395 -0.312511
0.07836087 -0.02002712 -0.010862055 -0.10611486 0.006127694 -0.067261264
00000000: f2d3 bdbb c7a1 cbbe 520e a1be 01da 103c
00000010: e69b 783d d99f 15be bef3 1abf 6319 fbbe
00000020: 8617 9dbe 81aa 4cbe 54d5 a83e d569 9c3e
00000030: 9cd6 10bc 5f9e b93e b972 3b3e c67c d33e
00000040: 58ec 083f 5329 a93e ae3f 07bd f6f6 8ebe
00000050: 07e8 733e 78bd 8d3e 46bf d13e a59d 9d3e
00000060: aabb efbd b877 0a3e 055a f9bd b2e6 aabe
00000070: f3c8 8c3e 0c63 173e 3abc 943e 7661 e5be
00000080: 9472 a2be 2507 363e 9fc6 a93e 281b a23e
00000090: f0bd 1fbf 0127 e9be e8c5 0f3e ebd4 cd3e
000000a0: deaf 663e c9bc 37bf 869d 98be a9d6 a33e
000000b0: 0955 cf3e 6744 913d 0e26 18bf d006 abbe
000000c0: 64f4 9c3e 1b5f d73e 4363 2b3d fa5d 373c
000000d0: 0dd2 c5be 0976 e33d 73cb ab3d f67f aabe
000000e0: 5926 67be ffc3 08be 9b69 8c3e 6b9e ac3d
000000f0: 5473 edbe 71ca 453c 6e19 e93e 1352 023f
00000100: 18e6 f03d b49f ca3d ce21 ff3e 6cc7 db3e
00000110: baa7 083e 88cb febd d7b3 c13d 9a4d 7a3e
00000120: 3b70 15be f7e1 ebbd df71 aabe d077 e0bd
00000130: 1bc2 25be 3251 abbd 3540 f03d 23fb f63d
00000140: 33f1 ae3d 9542 c93e 8ce3 f63e 1492 983e
00000150: 5645 403e 2cae ce3d 9cd8 ef3e d4b7 9f3e
00000160: de90 083f 90c3 b83e 063b cfbe 2f3a 18bf
00000170: 8359 8dbe 4d51 98bd f3b0 083c 47b8 bbbe
00000180: 5b5c 41bf 46a1 47bf c851 e1be 1d8a 10be
00000190: 92e1 863d 5b28 8b3e 7277 6d3e f843 1cbe
000001a0: 0d41 e9be 0ed4 c53c aa88 b43e 8c62 c43e
000001b0: bdce 9d3e a540 1cbe 1514 643c 0c3e 6f3d
000001c0: 6431 393e d9d1 993e 9291 95be 9f6d f83d
000001d0: 5e53 a7bc b9e8 d83d d75e 253d d385 96bb
000001e0: fa70 cabd 0df8 12bd 5fcc 33bc 647b 1b3d
000001f0: 7944 84bc 035c 073e b3e9 c13e 3c69 b93e
00000200: 3060 d03e 4a0b 233e 844c 253e b733 4d3d
00000210: a063 a03e 410f ac3e 177b aa3e c7f0 20be
00000220: 09b0 8ebe acdd 4bbe 8185 15be 6135 e4bc
00000230: 0bc7 a9bd 4415 28bf 4fb2 23bf 7101 a0be
00000240: aa7b a03d ea0f a4bc c3f6 31bc bf52 d9bd
00000250: d3ca c83b 46c0 89bd

conv2d_1/Conv2D f4 [16, 5, 5, 6]
0.13703671 -0.0041092113 -0.0031967212 -0.12575686 -0.080733865 0.115999766 0.15541221 0.2797913
0.011935325 -0.09412819 -0.012229481 0.055611935 0.07460439 0.29528788 0.10882658 -0.15881746
-0.012937262 -0.23166597 -0.04862954 0.2497684 -0.11222655 -0.13772653 -0.118187286 -0.2944617
0.03613043 0.40660465 0.106757514 0.031890135 -0.22318006 -0.20974076 -0.0038192263 0.17685406
-0.20393287 -0.15925238 0.11951309 -0.28452063 0.15138657 0.37960124 0.06480361 -0.3677688
0.028204199 -0.30087498 0.011098214 0.3383658 0.17572233 -0.37198147 -0.07980146 0.06334952
-0.05901536 0.18661483 -0.12885867 -0.3010959 -0.29180676 -0.00061277306 -0.041718017 0.1454564
0.14062308 -0.004383895 -0.2610717 -0.012157026 -0.13320719 0.31178394 -0.021710096 -0.23886625
0.18432935 -0.08258402 -0.16561058 0.3343617 0.075353794 -0.5402115 0.0497004 -0.53766274
-0.18400481 0.19285226 -0.12613408 -0.7080228 -0.06499357 -0.36008078 -0.27151227 0.05763738
-0.25828966 -0.41705456 -0.4188432 0.02711377 -0.3957268 0.23695071 0.06223923 -0.15588762
-0.057034537 0.027476393 0.11839581 0.11848271 0.05139854 -0.21414393 0.08143948 -0.19957942
-0.01539901 0.11425189 -0.18165848 0.15745845 0.05781128 -0.04995627 0.03117573 -0.15189584
-0.38687783 0.35139316 -0.16897047 -0.3146852 0.35349205 -0.34989685 -0.107710086 0.17773025
-0.3050617 -0.051974606 0.28575453 -0.11103196 0.09841845 0.10732444 -0.23914938 0.029416366
-0.15272474 -0.22192982 0.029008396 -0.03646753 0.017968198 -0.07226632 0.03493411 -0.053890266
-0.11096376 0.16797769 0.10529219 0.035437107 0.11550212 -0.40622348 -0.2166793 0.5069492
0.13101684 0.25015736 0.047017038 -0.4972361 -0.10014241 0.48779893 0.22117351 0.27136347
0.33574235 -0.36079723 0.1791549 0.36786208 -0.09621847 0.19334172 -0.16690512 -0.35912812
-0.080791265 0.33407274 -0.124012195 0.15583046 -0.23795873 -0.1826219 -0.3570952 0.366545
-0.06724695 0.26924783 -0.08158033 -0.182047 0.13846287 -0.021488706 0.102934554 -0.1532842
-0.037210137 -0.05680308 -0.040256813 -0.10481635 -0.2946102 -0.20484668 -0.23492841 0.457174
-0.001337994 0.043275613 -0.1701541 -0.0851952 -0.061573293 -0.47453055 -0.08000757 -0.124403216
-0.25087824 -0.22698677 -0.10878818 -0.15585722 -0.15617834 -0.2099274 -0.15231547 0.28570446
0.25504622 -0.3996501 0.137557 -0.15699466 -0.124721475 0.031681053 0.1967211 -0.26802063
-0.03076944 -0.04716467 -0.14064486 0.18448585 -0.1504357 0.35754704 -0.030901143 0.42586488
-0.1303949 0.29076666 0.018076615 -0.23708458 0.17597651 0.0133496225 -0.11162867 -0.29604986
0.41754532 -0.33628085 0.34800124 0.08682468 -0.10021798 -0.29448023 0.41586253 -0.32521462
0.2130383 -0.12033577 0.20406951 -0.5655515 0.1163245 -0.33407655 -0.23338318 -0.21109954
-0.07305563 -0.38771796 0.16384584 0.070411645 -0.08532849 -0.056749806 -0.29173866 0.21248244
0.19344047 -0.64482605 0.36909392 -0.18932652 0.018899716 0.024834901 -0.0357412 -0.884374
0.05006806 0.20260933 0.28199202 0.309134 0.18140748 -0.18012358 -0.036233235 0.34469128
00000000: 5a53 0c3e 90a6 86bb 1580 51bb 68c6 00be
00000010: cc57 a5bd 4991 ed3d 6124 1f3e ce40 8f3e
00000020: 628c 433c 48c6 c0bd 295e 48bc 57c9 633d
00000030: 30ca 983d f92f 973e 78e0 de3d 0ba1 22be
00000040: cff6 53bc d839 6dbe c52f 47bd 4ac3 7f3e
00000050: 09d7 e5bd 2f08 0dbe 2d0c f2bd afc3 96be
00000060: 80fd 133d 7c2e d03e afa3 da3d 3b9f 023d
00000070: 5089 64be 48c6 56be fc4b 7abb 3b19 353e
00000080: c7d3 50be 0e13 23be 47c3 f43d b0ac 91be
00000090: 1505 1b3e 185b c23e c1b7 843d 314c bcbe
000000a0: 7e0c e73c 490c 9abe 49d5 353c 483e ad3e
000000b0: 8ef0 333e 5b74 bebe f36e a3bd 65bd 813d
000000c0: 17ba 71bd f517 3f3e 87f3 03be 3e29 9abe
000000d0: b267 95be 81a2 20ba 83e0 2abd 86f2 143e
000000e0: 7fff 0f3e c7a6 8fbb 31ab 85be 432e 47bc
000000f0: 7767 08be 25a2 9f3e 5fd9 b1bc 5b99 74be
00000100: d5c0 3c3e d021 a9bd d295 29be 7531 ab3e
00000110: 1753 9a3d 4d4b 0abf a692 4b3d 44a4 09bf
00000120: c26b 3cbe 107b 453e 4b29 01be fb40 35bf
00000130: 591b 85bd 825c b8be a803 8bbe 2c15 6c3d
00000140: 8b3e 84be 2d88 d5be 9e72 d6be b21d de3c
00000150: b49c cabe 35a3 723e 90ee 7e3d 01a1 1fbe
00000160: 0c9d 69bd 2c16 e13c 8179 f23d 10a7 f23d
00000170: 4787 523d 8c48 5bbe bec9 a63d 8c5e 4cbe
00000180: 214c 7cbc e5fc e93d ae04 3abe ca3c 213e
00000190: 85cb 6c3d f29e 4cbd 3f64 ff3c 958a 1bbe
000001a0: da14 c6be cee9 b33e 9806 2dbe 6b1e a1be
000001b0: e9fc b43e ae25 b3be 1b97 dcbd ebfe 353e
000001c0: 0c31 9cbe 53e3 54bd 6b4e 923e b964 e3bd
000001d0: 9d8f c93d eacc db3d 93e3 74be 97fa f03c
000001e0: e063 1cbe 9241 63be 04a3 ed3c fa5e 15bd
000001f0: 0b32 933c 5d00 94bd 1217 0f3d 0abc 5cbd
00000200: f840 e3bd 5802 2c3e 6fa3 d73d 8026 113d
00000210: 608c ec3d 86fc cfbe 2ee1 5dbe 6cc7 013f
00000220: 4729 063e a014 803e f094 403d bb95 febe
00000230: 7717 cdbd c8c0 f93e 4f7b 623e 27f0 8a3e
00000240: 6ce6 ab3e 6aba b8be 6274 373e 6b58 bc3e
00000250: 300e c5bd 5ffb 453e 2de9 2abe a4df b7be
00000260: e475 a5bd 950b ab3e 1bfa fdbd 0592 1f3e
00000270: 74ab 73be 3c01 3bbe 2fd5 b6be c9ab bb3e
00000280: c5b8 89bd dada 893e 9713 a7bd 876a 3abe
00000290: 36c9 0d3e 1509 b0bc 5acf d23d 89f6 1cbe
000002a0: a869 18bd 59aa 68bd 54e4 24bd f4a9 d6bd
000002b0: 26d7 96be 54c3 51be 1391 70be b612 ea3e
000002c0: a15f afba c541 313d e03c 2ebe d27a aebd
000002d0: 4734 7cbd abf5 f2be 02db a3bd 1dc7 febd
000002e0: 1d73 80be 386f 68be 56cc debd 0999 1fbe
000002f0: 37ed 1fbe 35f7 56be 96f8 1bbe db47 923e
00000300: 6b95 823e f09e ccbe bedb 0c3e 35c3 20be
00000310: f96d ffbd fec3 013d 4271 493e 003a 89be
00000320: 3110 fcbc be2f 41bd 3505 10be dce9 3c3e
00000330: d10b 1abe 6810 b73e 6524 fdbc f60a da3e
00000340: 3e86 05be 5edf 943e 6915 943c 4dc6 72be
00000350: 3033 343e 60b8 5a3c 929d e4bd d993 97be
00000360: 80c8 d53e 012d acbe 382d b23e 23d1 b13d
00000370: 163f cdbd 1dc6 96be efeb d43e 8882 a6be
00000380: b626 5a3e 9a72 f6bd 99f7 503e fcc7 10bf
00000390: 8a3b ee3d 150c abbe 00fc 6ebe 7a2a 58be
000003a0: 319e 95bd f882 c6be 34c7 273e fb33 903d
000003b0: b4c0 aebd 7c72 68bd c55e 95be ff94 593e
000003c0: 4215 463e 5213 25bf e1f9 bc3e d0de 41be
000003d0: 94d3 9a3c 9072 cb3c 5d65 12bd 5666 62bf
000003e0: 2b14 4d3d d278 4f3e 4261 903e d046 9e3e
000003f0: e2c2 393e 5172 38be 4d69 14bd 607b b03e
